models/mnist_ae.safetensors (safetensors, 880820 bytes, 16 tensors)

decoder.0.bias f4 [12]
-0.45365027 -0.73729634 -0.41850287 0.84828395 1.1620476 -0.28769696 0.65842026 0.85520095
0.28441373 0.49717426 0.71205914 -0.025947612
00000000: d944 e8be 74bf 3cbf 0246 d6be 2329 593f
00000010: fabd 943f 044d 93be 3b8e 283f 73ee 5a3f
00000020: ad9e 913e a08d fe3e 8249 363f 1690 d4bc

decoder.0.weight f4 [12, 3]
0.019503979 0.33793914 -0.1711191 -0.41799793 0.4842293 0.6204576 -0.6574748 -0.4251423
-0.5068542 -0.18786578 0.2606293 -0.26879323 0.766253 -0.16546437 -0.61127096 0.60245
0.08977072 -0.6089002 0.10778409 0.581183 -0.100943185 -0.26835012 0.24028236 0.44355896
0.5857254 -0.23880419 0.7577439 -0.088488534 -0.11739599 -0.689654 -0.6345708 -0.023177575
0.4647832 -0.81465834 0.23778501 -0.6753252
00000000: cfc6 9f3c 5c06 ad3e d839 2fbe d303 d6be
00000010: e7ec f73e 4fd6 1e3f 4550 28bf 40ac d9be
00000020: 32c1 01bf e35f 40be 3471 853e 449f 89be
00000030: 2829 443f 7e6f 29be 417c 1cbf 2a3a 1a3f
00000040: b6d9 b73d e2e0 1bbf e8bd dc3d 69c8 143f
00000050: 4dbb cebd 3065 89be 940c 763e 291a e33e
00000060: 1af2 153f 1689 74be 81fb 413f 7a39 b5bd
00000070: 4f6d f0bd 2a8d 30bf 3b73 22bf e6de bdbc
00000080: 10f8 ed3e 738d 50bf ea7d 733e 1de2 2cbf

decoder.2.bias f4 [64]
0.3084422 -0.095644444 0.7126106 0.44084457 -0.22297102 -0.05579289 0.38772532 0.5592427
-0.33250144 0.5781543 0.19338368 -0.8475413 -0.17357343 -0.9211844 -0.31356475 -0.13461128
0.24377874 0.6750352 0.51789063 0.41325116 -0.59378076 -0.7991071 0.9714345 0.2988922
-0.57128567 0.077120066 -0.4771336 -0.6154601 0.48061222 -0.12456326 0.056597583 0.3370416
0.062145036 0.58266586 0.19408777 0.6413515 0.56965697 0.2848246 0.19366929 0.5379891
-0.74654555 0.19846249 0.3628105 0.25812924 -0.16327457 0.17079757 0.36759895 0.21060137
-0.03265069 -0.45214492 0.5222621 -0.02929913 0.4033862 -0.2857678 -0.014538109 0.074146
-0.03843473 0.21515022 0.36154214 -0.013333556 0.08951372 0.65923345 0.3772146 0.47042468
00000000: 23ec 9d3e 3ce1 c3bd a66d 363f 61b6 e13e
00000010: 8452 64be 1687 64bd ef83 c63e 882a 0f3f
00000020: a13d aabe ec01 143f 5f06 463e 77f8 58bf
00000030: 3cbd 31be bed2 6bbf 8f8b a0be 8ad7 09be
00000040: 22a1 793e 1bcf 2c3f 7b94 043f a895 d33e
00000050: 0402 18bf 4892 4cbf eeaf 783f 6608 993e
00000060: c73f 12bf 20f1 9d3d db4a f4be cb8e 1dbf
00000070: ce12 f63e 061b ffbd ded2 673d b790 ac3e
00000080: cb8b 7e3d 9729 153f f2be 463e 9d2f 243f
00000090: 0ad5 113f 88d4 913e 3e51 463e a7b9 093f
000000a0: 9c1d 3fbf c039 4b3e 4cc2 b93e 8429 843e
000000b0: 7331 27be 8fe5 2e3e ee35 bc3e e3a7 573e
000000c0: bbbc 05bd 8a7f e7be f8b2 053f bb04 f0bc
000000d0: a388 ce3e 2850 92be 4031 6ebc dcd9 973d
000000e0: bc6d 1dbd 5750 5c3e 0d1c b93e fd74 5abc
000000f0: f852 b73d 86c3 283f 4622 c13e 81db f03e

decoder.2.weight f4 [64, 12]
-0.046027955 -0.24489385 -0.5092464 0.32659164 0.44876313 -0.05922969 0.12887196 -0.020664476
-1.6134882 -0.099820666 0.22861743 0.08132003 -0.23168853 -0.15624028 -0.11414598 0.013768524
0.16163412 -0.15018523 -0.17319953 -0.26884043 -0.19259378 -0.1865659 0.060486436 0.12016308
-0.4335173 0.08661172 0.24967285 -0.30504686 0.78571624 0.655604 -0.48282164 0.06729725
-0.98055285 -0.033907797 0.6518186 -0.044627823 -0.31026712 -0.11840094 -0.12918216 0.106881015
0.1774601 -0.33947182 0.025775336 0.19424881 0.13203628 -0.07418464 0.25399613 0.06078238
-0.004433549 0.1842008 -0.06505966 0.25228545 0.0011016773 -0.29086757 -0.22008467 0.1631248
0.109709665 0.2642574 -0.4071954 0.3311303 0.28169507 0.04367324 0.089570336 0.09352841
-0.39322883 0.27329704 0.2573108 -0.061748788 -0.19895524 0.04837206 -0.22907151 0.15911514
0.113439016 0.06482508 -0.020274814 -0.025966913 -0.1637439 0.17331666 -0.10581517 0.15512201
-0.085487776 -0.11549741 -0.26199493 0.097901925 -0.23754422 -0.24323055 -0.08715612 0.30603772
-0.113354884 -0.13762279 0.17968427 0.2624905 0.40812248 0.034363285 -0.22818127 0.058722477
-0.2661594 0.48740873 -0.057044603 -0.11329355 -0.9396693 -0.88298494 -0.22607385 0.3933485
0.0851251 -0.31026763 0.21593153 -0.48593345 -0.27278528 -0.0006791742 -0.09148059 0.17916715
0.13514982 0.23654819 0.05515501 -0.14384557 0.24447991 -0.12041579 0.31227845 -0.03514575
-0.8160372 0.29965824 0.06920211 -0.549065 0.16966698 0.08320049 -0.38460556 -0.101984836
1.0813596 0.44945318 0.32826892 -0.92840934 -0.09571066 0.0539031 0.5515074 0.09435091
-0.4703704 0.47845772 -0.34313586 -0.28399202 -1.1260834 -0.2649066 0.18311486 0.5598083
-0.2771232 -0.060180128 -0.11928384 0.20691884 -0.043609947 -0.19777593 -0.19892697 -0.12556751
-0.19771513 -0.1437137 -0.2214411 -0.0612171 0.23599927 0.23564367 0.118819304 0.00490346
0.30777884 0.25609705 -0.023034625 -0.25605094 -0.18416579 0.3348201 0.15110803 -0.020520512
-0.28622675 0.23542179 -0.23877065 0.062495977 -0.12360123 0.074485585 -0.01994868 -0.22863409
-0.11851384 -0.10919382 -0.19040713 0.020295743 -0.058524758 0.08911189 -0.41590533 0.30203664
0.15084256 -0.4566637 0.20946163 0.10065787 0.262278 -0.3710201 0.17531845 -0.13493448
-0.008273504 -0.05432454 -0.21968298 0.07860589 0.11957876 -0.053514954 0.1501868 0.084537126
0.33175817 -0.44805014 -0.07178436 0.03493858 0.1695161 -0.018553516 -0.06033086 -0.17724419
0.488309 0.24326584 0.061445173 0.22709633 -0.14546753 0.1403768 0.16893557 -0.7281019
-0.16305219 -0.19188052 -0.29275683 0.15389536 -0.21247798 -0.2212147 0.21022473 0.0717594
0.003352645 0.16286406 -0.25111142 0.28591207 -0.14807712 -0.21187584 -0.2055831 0.11236986
0.041036762 -0.11144771 -0.022601219 0.2536076 0.062421143 -0.031138143 0.19129695 0.15495946
0.33856168 0.0835137 0.18268704 -0.055449385 0.016841937 0.37104774 0.09717785 -0.04531342
-0.0050503835 0.5108365 0.014123262 -0.05957017 0.3217897 -0.05506544 0.21330142 0.021539414
00000000: cf87 3cbd 74c5 7abe f95d 02bf 0537 a73e
00000010: 48c4 e53e d59a 72bd 03f7 033e 8c48 a9bc
00000020: c886 cebf c76e ccbd b01a 6a3e 1e8b a63d
00000030: c23f 6dbe 74fd 1fbe 5ec5 e9bd 6095 613c
00000040: 6a83 253e 28ca 19be 385b 31be 74a5 89be
00000050: 4e37 45be 220b 3fbe a0c0 773d 1018 f63d
00000060: fbf5 ddbe 7c61 b13d 3daa 7f3e 1a2f 9cbe
00000070: b324 493f aad5 273f 6634 f7be 24d3 893d
00000080: 8305 7bbf e7e2 0abd 95dd 263f aacb 36bd
00000090: 55db 9ebe 317c f2bd 5448 04be 6fe4 da3d
000000a0: 1ab8 353e 40cf adbe cc26 d33c 29e9 463e
000000b0: 8534 073e 1eee 97bd c80b 823e f2f6 783d
000000c0: 4e47 91bb 229f 3c3e 003e 85bd 8f2b 813e
000000d0: 2866 903a 98ec 94be e05d 61be 300a 273e
000000e0: 76af e03d bf4c 873e ea7b d0be e989 a93e
000000f0: 563a 903e b6e2 323d a770 b73d d38b bf3d
00000100: 4a55 c9be 97ed 8b3e 3ebe 833e 4cec 7cbd
00000110: ecba 4bbe c821 463d b991 6abe 14ef 223e
00000120: b752 e83d 03c3 843d 5e17 a6bc 90b8 d4bc
00000130: 7bac 27be ec79 313e a0b5 d8bd 4ed8 1e3e
00000140: 3714 afbd e889 ecbd 3324 86be ce80 c83d
00000150: cb3e 73be 6e11 79be e87e b2bd fab0 9c3e
00000160: 9b26 e8bd fdec 0cbe 27ff 373e 2865 863e
00000170: 6ef5 d03e 84c0 0c3d 5aa8 69be fb86 703d
00000180: 0b46 88be a38d f93e 9aa7 69bd 7306 e8bd
00000190: 2b8e 70bf 4d0b 62bf e77f 67be f964 c93e
000001a0: 1256 ae3d 66db 9ebe 281d 5d3e 45cc f8be
000001b0: 83aa 8bbe 9c0a 32ba 2d5a bbbd 9877 373e
000001c0: b764 0a3e b039 723e 38ea 613d 414c 13be
000001d0: f158 7a3e 8e9c f6bd f6e2 9f3e fdf4 0fbd
000001e0: d0e7 50bf ce6c 993e d6b9 8d3d 868f 0cbf
000001f0: 2ebd 2d3e 0565 aa3d 05eb c4be 6ddd d0bd
00000200: fe69 8a3f ba1e e63e dd12 a83e 3cac 6dbf
00000210: f303 c4bd 7fc9 5c3d 972f 0d3f 0d3b c13d
00000220: 64d4 f0be 69f8 f43e 81af afbe 6767 91be
00000230: 8023 90bf d6a1 87be 7682 3b3e 994f 0f3f
00000240: 18e3 8dbe 707f 76bd 164b f4bd 88e2 533e
00000250: 58a0 32bd c685 4abe 83b3 4bbe c594 00be
00000260: d675 4abe af29 13be 75c1 62be c8be 7abd
00000270: cba9 713e 934c 713e 8957 f33d 34ad a03b
00000280: 3095 9d3e 271f 833e 1cb3 bcbc 1c19 83be
00000290: f595 3cbe 8a6d ab3e 10bc 1a3e a21a a8bc
000002a0: 508c 92be 6912 713e 4b80 74be c8fb 7f3d
000002b0: a422 fdbd e68b 983d 6a6b a3bc 0e1f 6abe
000002c0: 62b7 f2bd 02a1 dfbd 16fa 42be 4243 a63c
000002d0: a8b7 6fbd 4b80 b63d 8bf1 d4be 8ca4 9a3e
000002e0: 7976 1a3e d3cf e9be 1c7d 563e b725 ce3d
000002f0: 4d49 863e 59f6 bdbe ae86 333e 442c 0abe
00000300: 978d 07bc 6983 5ebd 93f4 60be 20fc a03d
00000310: b5e5 f43d 7f32 5bbd 92ca 193e cd21 ad3d
00000320: 35dc a93e d466 e5be ae03 93bd c21b 0f3d
00000330: a195 2d3e 8bfd 97bc 7e1d 77bd 807f 35be
00000340: a303 fa3e ae1a 793e efad 7b3d f18b 683e
00000350: 71f5 14be f0be 0f3e 72fd 2c3e e364 3abf
00000360: 27f7 26be 547c 44be 39e4 95be bf96 1d3e
00000370: d493 59be 1b86 62be 2745 573e 98f6 923d
00000380: 0db8 5b3b d6c5 263e ad91 80be 1163 923e
00000390: 87a1 17be fbf5 58be 6084 52be 2b22 e63d
000003a0: 2a16 283d b23e e4bd 3126 b9bc dbd8 813e
000003b0: 50ad 7f3d 6b15 ffbc 59e3 433e b1ad 1e3e
000003c0: f557 ad3e 3b09 ab3d 5012 3b3e e51e 63bd
000003d0: 1af8 893c f8f9 bd3e 2e05 c73d 919a 39bd
000003e0: b07d a5bb 2ec6 023f 4165 673c daff 73bd
000003f0: 9fc1 a43e 4c8c 61bd b06b 5a3e 6d73 b03c

decoder.4.bias f4 [128]
-0.09153421 -0.09485909 0.11684712 -0.1218923 -0.04952272 0.23023348 0.24072486 0.034256265
0.09596076 0.22855693 0.08095859 -0.34143597 0.086274214 -0.09160903 0.096983135 0.21221134
0.10986092 0.34356466 -0.023931935 0.3764809 -0.13794751 -0.18990242 0.2442556 0.061963946
0.07940136 0.34077758 0.14318621 0.046066467 0.18120581 -0.3234003 0.08438755 -0.04941213
-0.14117065 0.17514814 -0.15051678 -0.05847369 0.09221839 -0.120655715 0.026185753 0.09213409
-0.11887735 0.13414016 -0.36559555 0.09781895 0.19477114 -0.012300809 0.018049689 0.26829425
-0.02620823 0.17912686 0.27580008 -0.0043810853 -0.04297897 0.20432606 0.12532693 0.19446029
0.26233196 0.034413815 -0.043482557 0.012910014 0.09758426 -0.06358445 0.19874698 0.08691657
0.15851285 0.12610012 0.0070971046 0.16447829 -0.06841229 0.14113544 0.0147381425 -0.5052605
0.30767623 -0.61242086 0.17867097 -0.073013306 0.13955571 0.12044884 -0.08477691 0.25051853
0.18527758 0.062731795 0.022686755 0.4075307 0.23742968 0.1647963 0.32318082 0.269797
-0.07997262 0.06299611 -0.1521073 0.29739344 -0.10563597 0.18927708 -0.103758655 -0.087588646
0.2795621 -0.03902197 0.24615893 0.11219059 0.06731575 0.16599111 -0.116487265 0.16247717
-0.050977398 0.115323275 0.031152055 0.08733787 0.012957247 0.107801326 0.16991892 0.12868214
0.032576412 -0.052858464 0.10157804 0.21530776 0.11526031 0.012533124 -0.12904595 0.31006292
0.051717423 0.104923695 -0.08431299 0.09496218 -0.14594962 -0.12672845 0.2985394 -0.12327097
00000000: 4a76 bbbd 7c45 c2bd 8b4d ef3d aca2 f9bd
00000010: 56d8 4abd 53c2 6b3e 9480 763e 4c50 0c3d
00000020: 1387 c43d d40a 6a3e 9ecd a53d b2d0 aebe
00000030: 89b0 b03d 849d bbbd 189f c63d ee4d 593e
00000040: c3fe e03d b5e7 af3e e80c c4bc 1bc2 c03e
00000050: 1d42 0dbe c875 42be 241e 7a3e e8cd 7d3d
00000060: 2e9d a23d 667a ae3e 689f 123e 31b0 3c3d
00000070: 048e 393e b994 a5be 61d3 ac3d 6064 4abd
00000080: 0a8f 10be 095a 333e 1221 1abe 1c82 6fbd
00000090: ffdc bc3d 581a f7bd 8183 d63c ccb0 bc3d
000000a0: f875 f3bd 0a5c 093e 572f bbbe 4d55 c83d
000000b0: 1672 473e 5589 49bc f1dc 933c dd5d 893e
000000c0: a4b2 d6bc 086d 373e ab35 8d3e 358f 8fbb
000000d0: b70a 30bd da3a 513e b455 003e 9920 473e
000000e0: 6050 863e 80f5 0c3d c41a 32bd 8684 533c
000000f0: 42da c73d 9038 82bd 5484 4b3e 5101 b23d
00000100: 3151 223e 6420 013e d48e e83b ff6c 283e
00000110: be1b 8cbd cf85 103e 4078 713c c158 01bf
00000120: bd87 9d3e 9dc7 1cbf 86f5 363e 0088 95bd
00000130: b1e7 0e3e e2ad f63d 849f adbd f743 803e
00000140: 68b9 3d3e 8779 803d 93d9 b93c dda7 d03e
00000150: c420 733e 5cc0 283e f577 a53e d522 8a3e
00000160: afc8 a3bd 1b04 813d 04c2 1bbe f443 983e
00000170: ac57 d8bd dad1 413e 6b7f d4bd ad61 b3bd
00000180: c322 8f3e 80d5 1fbd 1611 7c3e 2ec4 e53d
00000190: d7dc 893d 93f9 293e e090 eebd 6a60 263e
000001a0: adcd 50bd 9c2e ec3d 9832 ff3c 32de b23d
000001b0: a24a 543c f1c6 dc3d 3aff 2d3e 40c5 033e
000001c0: d86e 053d 1e82 58bd 2608 d03d a379 5c3e
000001d0: 990d ec3d bb57 4d3c 9f24 04be 91c0 9e3e
000001e0: a6d5 533d 3ce2 d63d 4aac acbd 887b c23d
000001f0: d173 15be 1ac5 01be 28da 983e 7e75 fcbd

decoder.4.weight f4 [128, 64]
-0.019228237 0.076670215 -0.0737258 0.050007038 -0.13046794 -0.1412453 0.08249733 0.088743985
0.060868382 -0.025798846 -0.04146281 0.062183306 0.079123825 0.053452667 -0.05815208 -0.010890589
-0.098382846 0.053690016 -0.0751817 -0.11282211 0.006007069 -0.030039195 -0.0062463507 -0.15028666
-0.052149672 0.059906293 0.10092108 0.107339896 0.05346845 -0.076554984 -0.083506204 -0.009727123
-0.12550856 -0.11548806 -0.03219728 -0.010754973 -0.018315108 0.08096155 0.057128474 -0.14494435
-0.09978793 0.039829418 -0.06843539 -0.15699883 0.009026542 -0.06255931 -0.08386325 0.11243923
0.030449543 0.023980144 0.043504536 -0.16522533 -0.15769684 0.029940113 0.12175262 -0.039009422
0.06706266 0.0070717633 0.047814686 -0.08670786 0.027153127 -0.14610532 -0.10626963 -0.11454983
-0.09105773 -0.09403476 -0.14050496 -0.09781018 -0.063731305 0.032921616 -0.13730335 -0.060909435
-0.11402576 -0.051070485 -0.014612734 0.07836214 0.019688651 -0.059407134 0.119385585 -0.054647148
-0.12539104 -0.10213068 -0.0067054587 -0.080419146 -0.032590616 -0.10887485 -0.04497031 0.061921924
-0.14294456 -0.12993415 0.07788961 0.011292505 -0.07681836 0.014814064 -0.011855513 -0.04378368
-0.112131216 -0.00086432847 0.11539635 -0.081295036 0.07695072 -0.004774225 -0.122778356 0.1038761
-0.08944769 0.089441374 0.022752125 0.047378246 0.007380575 -0.10320538 -0.040660873 -0.087645546
0.06414624 -0.06158512 0.089765765 -0.08806704 0.03543293 0.009263203 0.07547666 0.016155155
0.12345724 -0.05880341 -0.051879928 -0.010470405 0.04279375 -0.048034176 -0.06424747 -0.00012374495
0.0684832 0.09961811 0.25790888 0.16619149 0.19357052 0.01048335 0.0037967176 -0.108821355
-0.040661227 -0.07004065 0.060492076 -0.4494496 -0.09252995 -0.06130528 0.06682665 -0.08285724
-0.10989198 -0.13035838 0.13369158 0.08359652 -0.17849714 -0.043168403 0.12106491 0.2910989
-0.03296038 -0.057697386 -0.1927887 0.064574815 0.02378383 0.097162955 0.12379188 -0.03792024
0.0889489 -0.13702309 0.15082112 0.33831063 -0.14228956 0.077779226 0.47444546 0.12577042
-0.22383267 0.024465233 0.086346105 -0.039406966 0.05625053 0.22059493 -0.55025315 -0.54710925
0.21686088 0.040099014 -0.1370747 0.07127844 -0.15331708 -0.36387527 -0.21411428 0.15570872
-0.117956236 0.22645667 0.12313706 0.09339166 -0.27562833 -0.049123753 0.33178505 0.11092563
0.03440391 0.07301971 0.0071397345 -0.05016821 -0.14852326 0.034499846 0.05267607 0.042833023
-0.038432185 -0.075323485 -0.049409598 0.046730038 -0.05647765 0.011095112 -0.07222575 0.075703494
-0.008101085 -0.026025426 -0.15041344 0.011411024 -0.1293254 0.06154605 -0.08109023 -0.0115661165
0.0209392 -0.010115851 -0.09741368 -0.07248595 -0.044126704 -0.11327776 -0.07860383 -0.15393806
-0.10046263 -0.0060270303 0.05939451 -0.11315278 -0.1242447 -0.017677132 -0.001600936 -0.06362648
-0.13323812 0.0027984828 -0.06742748 0.018072136 0.019653218 0.06268388 0.01869936 -0.0067404313
-0.06487095 -0.10403541 -0.095812954 0.021319982 -0.07797833 0.11091536 -0.08658297 -0.16160809
-0.033662662 -0.11441438 -0.05323267 -0.0033813864 0.0830333 0.06703655 -0.08675869 -0.030760525
00000000: 8984 9dbc 4605 9d3d 8dfd 96bd 2ed4 4c3d
00000010: 6399 05be 9ca2 10be 5cf4 a83d 68bf b53d
00000020: 2051 793d 1a58 d3bc e8d4 29bd ecb3 7e3d
00000030: ac0b a23d 2ff1 5a3d e030 6ebd 716e 32bc
00000040: f27c c9bd 10ea 5b3d ddf8 99bd 470f e7bd
00000050: f2d6 c43b c214 f6bc 30ae ccbb bfe4 19be
00000060: e59a 55bd 4d60 753d b6af ce3d 05d5 db3d
00000070: bc01 5b3d dcc8 9cbd 4d05 abbd 835e 1fbc
00000080: 5185 00be 0185 ecbd 4ce1 03bd a035 30bc
00000090: 9109 96bc 2bcf a53d 8cff 693d 4b6c 14be
000000a0: 9d5d ccbd 2c24 233d db27 8cbd 4dc4 20be
000000b0: 10e4 133c 181f 80bd 7fc0 abbd 8a46 e63d
000000c0: 5271 f93c 0272 c43c d031 323d d430 29be
000000d0: 487b 21be f844 f53c 7059 f93d 58c8 1fbd
000000e0: 2658 893d 40ba e73b 55d9 433d e493 b1bd
000000f0: 3c70 de3c a29c 15be e4a3 d9bd 1a99 eabd
00000100: 7a7c babd 4c95 c0bd 88e0 0fbe b450 c8bd
00000110: 8f85 82bd d1d8 063d 4099 0cbe 2c7c 79bd
00000120: 5686 e9bd 492f 51bd 406a 6fbc 547c a03d
00000130: 184a a13c e554 73bd 6e80 f43d b0d5 5fbd
00000140: 8266 00be e429 d1bd 77b9 dbbb cbb2 a4bd
00000150: bd7d 05bd c7f9 debd ca32 38bd d8a1 7d3d
00000160: 0f60 12be 750d 05be 9684 9f3d 3304 393c
00000170: f252 9dbd b0b6 723c a03d 42bc 8456 33bd
00000180: 0da5 e5bd 1a94 62ba ec54 ec3d 037e a6bd
00000190: 5798 9d3d 1a71 9cbb 3873 fbbd febc d43d
000001a0: 5a30 b7bd 0a2d b73d aa62 ba3c b10f 423d
000001b0: c0d8 f13b 585d d3bd 048c 26bd 827f b3bd
000001c0: 1b5f 833d ae40 7cbd 1dd7 b73d 7e5c b4bd
000001d0: 1f22 113d b0c4 173c 8293 9a3d d157 843c
000001e0: 26d7 fc3d d8db 70bd 0c80 54bd 108c 2bbc
000001f0: 8048 2f3d 7cbf 44bd 2d94 83bd 88c1 01b9
00000200: ec40 8c3d 9404 cc3d a20c 843e 1a2e 2a3e
00000210: 5a37 463e 5bc2 2b3c 5ad2 783b bbdd debd
00000220: 638c 26bd 7971 8fbd 8ac6 773d 421e e6be
00000230: 5880 bdbd 3f1b 7bbd 69dc 883d 0fb1 a9bd
00000240: 0c0f e1bd ab7c 05be 72e6 083e a734 ab3d
00000250: f4c7 36be 5ad1 30bd e1f0 f73d ea0a 953e
00000260: 7701 07bd 1854 6cbd 676a 45be cd3f 843d
00000270: 4fd6 c23c 5ffd c63d 9986 fd3d 4152 1bbd
00000280: d72a b63d c84f 0cbe da70 1a3e 0d37 ad3e
00000290: 5bb4 11be b74a 9f3d 84ea f23e f6c9 003e
000002a0: 6434 65be 506b c83c 3ad6 b03d 3369 21bd
000002b0: f566 663d a3e3 613e 64dd 0cbf 5a0f 0cbf
000002c0: c710 5e3e dd3e 243d 4f5d 0cbe 6efa 913d
000002d0: 27ff 1cbe dc4d babe c640 5bbe 1b72 1f3e
000002e0: 0a93 f1bd 42e4 673e 482f fc3d 2044 bf3d
000002f0: 281f 8dbe fd35 49bd bbdf a93e fa2c e33d
00000300: 1deb 0c3d 5c8b 953d 6ff4 e93b 2e7d 4dbd
00000310: 7b16 18be b64f 0d3d ddc2 573d ae71 2f3d
00000320: 116b 1dbd 3343 9abd b861 4abd ff67 3f3d
00000330: 1c55 67bd 46c8 353c 18eb 93bd 6f0a 9b3d
00000340: 6aba 04bc 4633 d5bc fb05 1abe 4ef5 3a3c
00000350: e16d 04be b617 7c3d a212 a6bd cf7f 3dbc
00000360: af88 ab3c f4bc 25bc d380 c7bd 8473 94bd
00000370: 34be 34bd 2cfe e7bd 0bfb a0bd f0a1 1dbe
00000380: 5abf cdbd 657e c5bb a847 733d a5bc e7bd
00000390: 0174 febd a2cf 90bc 80d6 d1ba 9a4e 82bd
000003a0: 936f 08be c066 373b 6b17 8abd 040c 943c
000003b0: c9ff a03c 6860 803d 662f 993c d6de dcbb
000003c0: 10db 84bd 8410 d5bd 9539 c4bd 3ea7 ae3c
000003d0: 1ab3 9fbd 9827 e33d 6a52 b1bd 977c 25be
000003e0: dce1 09bd 1652 eabd 800a 5abd 409a 5dbb
000003f0: 5d0d aa3d 754a 893d 8aae b1bd 7ffd fbbc

decoder.6.bias f4 [784]
0.007470399 -0.02186663 -0.039509747 -0.051834244 0.003827568 0.019054756 -0.046329804 -0.024744645
-0.111347646 -0.11942013 -0.012561327 -0.06735393 -0.028322134 -0.1023217 -0.10774024 -0.05813159
-0.0826927 -0.075315334 -0.06384433 0.051847763 -0.07503815 0.036139145 -0.06986161 -0.007690801
-0.0572824 0.043881647 0.011026741 -0.08824828 -0.10708665 0.0028199956 -0.0729224 -0.10995584
-0.03305097 -0.04267716 0.0489651 -0.077900946 -0.09761428 0.03131385 -0.09639517 0.020599574
0.04368814 -0.014068345 0.008834752 -0.08509368 0.053166546 0.021887256 -0.012542516 0.002734284
-0.07764646 0.054442756 -0.09516826 -0.07456288 -0.05279679 -0.10214544 -0.05561031 -0.10846732
-0.05028426 -0.10763853 -0.0042169876 -0.059638735 0.023763437 -0.047891237 -0.08508237 -0.10042822
-0.09220952 -0.05645371 -0.060222 0.039207283 -0.0740641 -0.13075446 -0.038756836 -0.03235206
-0.12738241 -0.11122215 0.03130203 -0.049618177 -0.044376623 -0.06943612 -0.107569955 -0.03181096
-0.013130244 -0.08054185 -0.030742407 -0.06943205 -0.0177691 -0.12046054 0.009780324 -0.019802978
0.02557722 -0.037569128 -0.04004221 -0.11580354 0.014546118 -0.008557779 0.02620919 0.022737406
-0.129484 -0.042068917 -0.14951134 -0.060102984 -0.05215394 0.04473082 -0.012885964 -0.012611805
0.034402538 -0.06734155 -0.07426176 -0.038740743 0.002836278 -0.100888126 0.0143577615 -0.10628349
-0.10124317 0.040953197 -0.034311514 0.018438479 -0.0029326405 -0.059542846 -0.023851082 -0.07688437
-0.01518551 -0.125428 0.010302769 -0.0065501262 -0.0079634935 -0.095788695 -0.14016432 -0.008719346
-0.12748358 -0.10067926 -0.096877955 -0.048130117 -0.0361124 -0.09901051 -0.0712308 0.03522191
-0.009216599 -0.099054895 -0.112898156 0.037360933 -0.059675906 0.006379374 0.03996604 -0.060181882
-0.024109473 0.0021399723 -0.15038359 -0.10915988 -0.06425401 -0.03587791 -0.14598083 0.020315269
-0.012435465 -0.0010305091 -0.15675713 -0.13138081 -0.03592456 -0.15695465 -0.10278372 -0.02198163
-0.15085301 -0.10883815 -0.009400418 0.029156236 -0.06813082 0.001365084 -0.03467619 0.05475025
0.019180903 -0.05751293 -0.023341527 0.037033305 -0.081383914 -0.016592648 -0.19421108 -0.02334044
-0.142007 0.015558254 0.030549966 0.09466962 0.06833772 -0.0037503124 -0.12315121 -0.03814862
-0.021652196 -0.053730953 -0.04271385 -0.10022517 -0.12408469 -0.008262764 -0.082112156 -0.054333117
-0.014633434 -0.09045653 -0.019513609 -0.119540974 -0.085316785 -0.0731427 -0.10685614 -0.0023387591
-0.04524191 -0.22065856 -0.10724951 -0.10466469 0.041692097 0.067972556 0.019159073 -0.025018834
-0.08551248 -0.09223918 -0.071046986 -0.08237642 -0.14878346 -0.14569597 -0.16906036 -0.14113893
-0.14079064 -0.15323342 -0.15812802 -0.10561151 -0.058568664 0.02270174 -0.09758605 -0.0024453886
-0.03331447 -0.04871636 -0.1213511 -0.18769608 -0.2456787 -0.32595405 -0.21482228 -0.120341524
-0.12763795 -0.05419099 -0.080950774 -0.0710776 -0.117886126 -0.16974123 -0.22062123 -0.18262456
-0.10876726 -0.07702976 -0.02376688 -0.12642075 -0.18832189 -0.13627546 -0.16798286 -0.11481703
-0.12043529 -0.10965543 -0.011691251 -0.036242977 -0.07631654 0.029443799 -0.102796845 -0.07370561
00000000: 40ca f43b a621 b3bc f9d4 21bd 2550 54bd
00000010: efd7 7a3b b818 9c3c 52c4 3dbd 48b5 cabc
00000020: 3c0a e4bd 8b92 f4bd 06ce 4dbc dbf0 89bd
00000030: d203 e8bc 0a8e d1bd eaa6 dcbd 641b 6ebd
00000040: ca5a a9bd ed3e 9abd d1c0 82bd 525e 543d
00000050: 9aad 99bd a406 143d 9b13 8fbd 1d03 fcbb
00000060: f3a0 6abd 3ebd 333d 81a9 343c 84bb b4bd
00000070: 3f50 dbbd adcf 383b 5758 95bd 8730 e1bd
00000080: 7460 07bd 3fce 2ebd a18f 483d 888a 9fbd
00000090: ffe9 c7bd f442 003d d56a c5bd 70c0 a83c
000000a0: 56f2 323d ea7e 66bc a3bf 103c 9845 aebd
000000b0: 2ac5 593d e74c b33c 207f 4dbc ac31 333b
000000c0: 1b05 9fbd 5eff 5e3d 94e7 c2bd 6cb4 98bd
000000d0: 7241 58bd a131 d1bd a3c7 63bd 1d24 debd
000000e0: def6 4dbd 9771 dcbd a82e 8abb bf47 74bd
000000f0: 8aab c23c 9a29 44bd aa3f aebd 50ad cdbd
00000100: 58d8 bcbd 013c 67bd 58ab 76bd d197 203d
00000110: ebae 97bd 7fe4 05be 7dbf 1ebd 9883 04bd
00000120: 8970 02be 70c8 e3bd 8f36 003d 6e3c 4bbd
00000130: 43c4 35bd 8634 8ebd a34d dcbd 364c 02bd
00000140: 3c20 57bc 20f3 a4bd 80d7 fbbc 6432 8ebd
00000150: 8190 91bc 04b4 f6bd a73d 203c db39 a2bc
00000160: 5187 d13c 16e2 19bd 4d03 24bd 682a edbd
00000170: d752 6e3c ed35 0cbc a8b4 d63c cc43 ba3c
00000180: 7497 04be 7550 2cbd 8019 19be 8c2e 76bd
00000190: 5f9f 55bd aa37 373d a61f 53bc bfa1 4ebc
000001a0: ade9 0c3d 5eea 89bd 8d16 98bd 9dae 1ebd
000001b0: d9e0 393b 6f9e cebd d13c 6b3c 29ab d9bd
000001c0: 9458 cfbd 8abe 273d 3b8a 0cbd 4b0c 973c
000001d0: 8b31 40bb 33e3 73bd 5863 c3bc 8d75 9dbd
000001e0: a5cc 78bc 3370 00be f2cc 283c 71a2 d6bb
000001f0: 5079 02bc dd2c c4bd 3c87 0fbe 96db 0ebc
00000200: 0e8b 02be ee30 cebd f367 c6bd 1624 45bd
00000210: 99ea 13bd 06c6 cabd 74e1 91bd d944 103d
00000220: 3801 17bc 4bdd cabd 2637 e7bd c707 193d
00000230: b96e 74bd 110a d13b 6eb3 233d 4781 76bd
00000240: 3b81 c5bc c73e 0c3b 28fe 19be 378f dfbd
00000250: 9b97 83bd b7f4 12bd 007c 15be 356c a63c
00000260: 1fbe 4bbc 2612 87ba f184 20be b188 06be
00000270: a225 13bd b8b8 20be 4580 d2bd d212 b4bc
00000280: 3679 1abe 89e6 debd 3604 1abc 0fd9 ee3c
00000290: 2c88 8bbd 9eec b23a 9f08 0ebd cc41 603d
000002a0: 4521 9d3c ae92 6bbd bb36 bfbc 3cb0 173d
000002b0: 9cac a6bd 4eed 87bc 45df 46be 7334 bfbc
000002c0: 486a 11be 0ce8 7e3c ec43 fa3c 25e2 c13d
000002d0: a6f4 8b3d cdc7 75bb b436 fcbd ba41 1cbd
000002e0: f25f b1bc fd14 5cbd b8f4 2ebd db42 cdbd
000002f0: 1d20 febd 8b60 07bc 6b2a a8bd 678c 5ebd
00000300: 12c1 6fbc 4641 b9bd 01db 9fbc e6d1 f4bd
00000310: 91ba aebd d7cb 95bd 64d7 dabd de45 19bb
00000320: 954f 39bd 51f4 61be a2a5 dbbd 715a d6bd
00000330: 55c5 2a3d 3235 8b3d 7df3 9c3c 4cf4 ccbc
00000340: 2b21 afbd e5e7 bcbd 1581 91bd f8b4 a8bd
00000350: b15a 18be 5331 15be 291e 2dbe b986 10be
00000360: 6c2b 10be 39e9 1cbe 50ec 21be d94a d8bd
00000370: b2e5 6fbd 00f9 b93c 32db c7bd d042 20bb
00000380: c174 08bd ce8a 47bd ed86 f8bd 6733 40be
00000390: 3293 7bbe 73e3 a6be 5ffa 5bbe 9e75 f6bd
000003a0: 86b3 02be 5ff7 5dbd 85c9 a5bd 2291 91bd
000003b0: 486e f1bd a5d0 2dbe 88ea 61be ef01 3bbe
000003c0: 5fc1 debd c7c1 9dbd c3b2 c2bc 7174 01be
000003d0: 74d7 40be cb8b 0bbe b303 2cbe 3125 ebbd
000003e0: c7a6 f6bd 0793 e0bd a98c 3fbc 8473 14bd
000003f0: d94b 9cbd 1f34 f13c 2787 d2bd f8f2 96bd

decoder.6.weight f4 [784, 128]
-0.03238449 0.053349085 -0.028944155 -0.04226833 -0.069628716 -0.7457402 -0.073537625 -0.120310135
-0.14258324 -0.16454509 0.006085247 -0.11684292 -0.67944837 0.08349676 0.018270707 -0.0041917367
-0.12972723 -0.046116233 0.041236743 -0.015145401 0.056240242 -0.023665795 -0.12052234 -0.109185204
-0.011879924 -0.040475685 -0.12653802 -0.13606116 -0.13047083 0.026049443 -0.0663303 -0.08635071
-0.06806615 -0.49233538 0.04205964 -0.05242517 -0.03490539 0.06285285 -0.08242025 0.030917168
-0.028437588 -0.12352282 -0.031064872 -0.026798172 -0.053401127 -0.06066428 -0.04031664 -0.06953932
0.03037219 -0.011752303 0.01846197 -0.12289174 -0.051301904 -0.09592695 -0.059446797 -0.085202865
0.004955872 -0.07265554 0.03863024 -0.1049867 -0.06596171 0.019164743 -0.046439923 -0.11670348
-0.09597013 -0.02480119 0.06140336 -0.10332372 -0.046071008 -0.12453723 0.056455918 -0.22097552
-0.04075754 -0.21912278 -0.045222994 0.030196534 -0.10231769 -0.07555576 -0.23950078 0.029355
-0.14108114 0.0830954 -0.30522692 -0.004659416 0.033206664 -0.05304589 -0.38835886 0.0030349805
0.080862865 -0.024730694 -0.093809836 0.039557572 0.049123056 -0.07359698 0.056789067 -0.5576432
0.020325268 0.010266068 -0.02523795 -0.045115296 0.038876332 -0.011422195 -0.01359649 -0.07185062
0.015710212 -0.023097489 0.05162986 -0.017369986 -0.115087934 0.009678303 0.02825514 -0.12370911
-0.06510887 0.026282743 -0.052843314 0.020188598 -0.08240229 0.02891057 0.061977692 -0.10344867
-0.098204635 0.03625426 0.04973305 -0.106976666 -0.07106717 -0.14873095 -0.6822246 -0.04050683
-0.031524107 -0.054567933 0.009801993 -0.0035377077 -0.063285075 -0.63628936 0.010187135 -0.110025
-0.16489595 0.008041794 -0.042679273 -0.056296356 -0.7020702 0.04969509 -0.069750346 -0.07117002
-0.026076218 -0.051188085 0.056896657 0.021617282 -0.07491626 -0.13585587 -0.032345574 -0.024879389
-0.023102151 -0.09479761 -0.049223937 -0.14684483 -0.069856875 -0.026366845 -0.1056714 0.015418181
-0.0036896917 -0.3881731 0.0454026 0.06693243 -0.023137292 0.05737529 -0.007695364 -0.10830491
0.0725971 0.03616089 -0.039479516 -0.05770242 -0.118079275 0.030411797 -0.03846259 -0.024065986
-0.04868675 0.04301716 -0.032755427 -0.08655966 0.043352824 -0.05414831 0.02434988 -0.0371374
-0.08505622 -0.02160145 -0.10608478 -0.01598978 -0.06769305 0.0016097244 -0.026480082 0.02904116
-0.12666468 0.028445583 -0.0935554 -0.027085446 -0.048653997 0.0008022024 0.06936105 -0.26062566
-0.01086506 -0.23279592 -0.068176076 0.079280116 0.021635136 0.06793974 -0.22137561 -0.13488589
-0.1195588 0.07495877 -0.25705335 -0.09115733 0.026151016 -0.120647445 -0.39526945 -0.07067927
-0.011944506 0.036387824 -0.113117605 -0.03555135 -0.029052064 -0.042099513 -0.08235453 -0.5505141
-0.09859207 -0.035107378 -0.036571443 -0.034556687 0.00986981 0.018660521 0.008492529 -0.048209433
0.064246185 0.033333547 0.041532945 -0.05578243 -0.13655335 -0.069154955 -0.102581866 -0.11486532
0.07253574 -0.032881357 -0.13326009 -0.10572283 -0.07470394 0.027785994 -0.074580446 -0.14470604
-0.020422397 -0.025970882 0.014547735 -0.050510835 -0.08069693 -0.18186201 -0.4832415 0.009566985
00000000: 99a5 04bd 9284 5a3d 4b1c edbc 8e21 2dbd
00000010: 8099 8ebd d4e8 3ebf e59a 96bd 2965 f6bd
00000020: 5701 12be 827e 28be c066 c73b 574b efbd
00000030: 54f0 2dbf 5900 ab3d 73ac 953c d65a 89bb
00000040: 37d7 04be 60e4 3cbd dce7 283d 6a24 78bc
00000050: 2b5c 663d c5de c1bc 6bd4 f6bd 7e9c dfbd
00000060: 03a4 42bc d5c9 25bd 2f93 01be 9e53 0bbe
00000070: 259a 05be a465 d53c 2ed8 87bd a4d8 b0bd
00000080: 4466 8bbd 6213 fcbe bb46 2c3d c6bb 56bd
00000090: f4f8 0ebd ffb8 803d f3cb a8bd 0046 fd3c
000000a0: f2f5 e8bc 88f9 fcbd c27b febc d787 dbbc
000000b0: 24bb 5abd 1c7b 78bd 1023 25bd a26a 8ebd
000000c0: 19cf f83c bb8c 40bc 8f3d 973c aaae fbbd
000000d0: f221 52bd 5975 c4bd 7c7e 73bd d77e aebd
000000e0: de64 a23b 6ecc 94bd be3a 1e3d 4403 d7bd
000000f0: ef16 87bd 61ff 9c3c ca37 3ebd 3c02 efbd
00000100: fd8b c4bd dd2b cbbc 1782 7b3d 639b d3bd
00000110: f4b4 3cbd 600d ffbd 523e 673d 6847 62be
00000120: 61f1 26bd b961 60be bf3b 39bd b95e f73c
00000130: f08b d1bd fabc 9abd b13f 75be e679 f03c
00000140: 9377 10be ec2d aa3d b446 9cbe 04ae 98bb
00000150: b603 083d a646 59bd f9d6 c6be 86e6 463b
00000160: 6e9b a53d 0698 cabc 5f1f c0bd 1f07 223d
00000170: 4235 493d 03ba 96bd a79b 683d b4c1 0ebf
00000180: 2d81 a63c 0333 283c d1bf cebc d1ca 38bd
00000190: ca3c 1f3d 2824 3bbc d0c3 5ebc 6b26 93bd
000001a0: b4b2 803c f236 bdbc d579 533d 804b 8ebc
000001b0: 39b3 ebbd bf91 1e3c 5377 e73c 345b fdbd
000001c0: cd57 85bd e84e d73c 3b72 58bd 8f62 a53c
000001d0: 88c2 a8bd dcd5 ec3c 52dc 7d3d e5dc d3bd
000001e0: 831f c9bd 597f 143d e2b4 4b3d 9516 dbbd
000001f0: aa8b 91bd ed4c 18be 45a6 2ebf 7dea 25bd
00000200: 6c1f 01bd a082 5fbd 8a98 203c e3d8 67bb
00000210: 9b9b 81bd dce3 22bf f1e7 263c ca54 e1bd
00000220: 7cda 28be bbc1 033c 76d0 2ebd 0297 66bd
00000230: dfba 33bf 148d 4b3d 45d9 8ebd 96c1 91bd
00000240: cb9d d5bc 99aa 51bd 780c 693d ba16 b13c
00000250: b26d 99bd cd1d 0bbe cb7c 04bd dccf cbbc
00000260: b940 bdbc 4025 c2bd 0a9f 49bd 7e5e 16be
00000270: 1f11 8fbd 48ff d7bc 3f6a d8bd 8a9c 7c3c
00000280: c1ce 71bb a0be c6be 14f8 393d df13 893d
00000290: 6b8a bdbc 5a02 6b3d 6429 fcbb f7ce ddbd
000002a0: caad 943d 711d 143d 46b5 21bd 5f59 6cbd
000002b0: 8cd3 f1bd 2922 f93c f38a 1dbd 0826 c5bc
000002c0: c26b 47bd c332 303d 8e2a 06bd 3146 b1bd
000002d0: bb92 313d 9eca 5dbd 6679 c73c 631d 18bd
000002e0: f531 aebd 86f5 b0bc fa42 d9bd 00fd 82bc
000002f0: a7a2 8abd 63fd d23a c2ec d8bc bae7 ed3c
00000300: 63b4 01be b606 e93c f999 bfbd 4ce2 ddbc
00000310: 6a49 47bd e44a 523a 2b0d 8e3d ba70 85be
00000320: 5d03 32bc 0e62 6ebe e69f 8bbd 9d5d a23d
00000330: 2b3c b13c fe23 8b3d 4ab0 62be 871f 0abe
00000340: 3edb f4bd fc83 993d 7f9c 83be b2b0 babd
00000350: a83a d63c 0216 f7bd c260 cabe 4bc0 90bd
00000360: e4b2 43bc 660b 153d 34aa e7bd 4b9e 11bd
00000370: 98fe edbc 8a70 2cbd 7ea9 a8bd 7eee 0cbf
00000380: a4ea c9bd c1cc 0fbd f0cb 15bd 508b 0dbd
00000390: fcb4 213c f3dd 983c 4024 0b3c 4177 45bd
000003a0: 8193 833d c288 083d 731e 2a3d 1e7c 64bd
000003b0: a4d4 0bbe 1da1 8dbd 7116 d2bd 823e ebbd
000003c0: 9e8d 943d 9aae 06bd 5575 08be 3685 d8bd
000003d0: 61fe 98bd 749f e33c a2bd 98bd d22d 14be
000003e0: df4c a7bc e3c0 d4bc a059 6e3c 73e4 4ebd
000003f0: 6f44 a5bd 093a 3abe 6e6b f7be d8be 1c3c

encoder.0.bias f4 [128]
0.012042738 -0.009311289 0.400969 -0.0016071027 0.43715075 0.31047586 0.34893915 0.7916279
-0.105954126 -0.29236317 -0.022407249 0.22347414 0.13083795 -0.4230612 0.4953366 -0.028168984
-0.00013771349 -0.038242072 -0.011577291 0.41716766 0.31621185 -0.024654923 0.12760696 0.5421147
0.37325895 -0.011234111 -0.015692987 0.38985056 0.0032021748 0.010168241 -0.40805328 -0.0014376052
-0.018383052 0.3103083 -0.6186823 0.33636022 0.05988683 -0.04153207 0.57176 0.4227732
-0.020994117 0.45747405 0.020454466 0.033193287 0.60807866 -0.10942837 0.66449124 0.07968024
0.2991389 -0.03706154 0.100461684 -0.009828727 -0.2718751 -0.09381049 0.003944441 -0.041869625
0.07358524 -0.0041602426 0.38249484 0.3631946 0.27508673 0.012181555 -0.03788589 0.587438
0.49828988 -0.028501736 -0.015392752 0.021400627 -0.086785845 -0.18017481 0.4487971 0.2522187
0.27744746 -0.041588753 -0.030554075 0.017824184 -0.019891357 0.012404578 -0.07193458 0.612304
-0.1569944 0.5739342 0.24463408 0.3383574 0.58736384 0.2806195 -0.006120685 -0.14286028
-0.017493721 -0.018278103 0.15019815 0.07726013 -0.011258883 0.48713946 -0.005367894 -0.5881511
0.11380901 -0.22908647 -0.040191747 0.15776706 0.2993832 0.13034269 0.7644183 -0.38403055
-0.46027735 0.26444608 0.5806566 -0.010801828 0.70262253 -0.016691444 -0.013968202 -0.015174617
0.3779706 0.5122794 0.10161713 0.06279694 -0.3827205 -0.33853358 0.21505374 0.40508437
-0.0014917337 0.24668814 -0.1173604 -0.14715458 -0.011936347 0.013067367 0.2839416 -0.039550092
00000000: e74e 453c 608e 18bc cf4b cd3e 6ba5 d2ba
00000010: 39d2 df3e b1f6 9e3e 27a8 b23e 20a8 4a3f
00000020: 7afe d8bd a0b0 95be 688f b7bc 68d6 643e
00000030: 62fa 053e 7a9b d8be c29c fd3e a4c2 e6bc
00000040: 2f67 10b9 b8a3 1cbd aeae 3dbc 0097 d53e
00000050: 85e6 a13e 1ff9 c9bc 66ab 023e 07c8 0a3f
00000060: cc1b bf3e 470f 38bc 948e 80bc 7e9a c73e
00000070: 94db 513b b298 263c 5cec d0be 076e bcba
00000080: 0e98 96bc bbe0 9e3e f761 1ebf 6837 ac3e
00000090: e54b 753d 881d 2abd dd5e 123f bb75 d83e
000000a0: dbfb abbc 0a3a ea3e 2090 a73c aff5 073d
000000b0: 0bab 1b3f fb1b e0bd 191c 2a3f 652f a33d
000000c0: bc28 993e d7cd 17bd dbbe cd3d ab08 21bc
000000d0: 3733 8bbe b71f c0bd 5f40 813b 7c7f 2bbd
000000e0: dcb3 963d a552 88bb 5dd6 c33e a5f4 b93e
000000f0: 2bd8 8c3e 2595 473c 3c2e 1bbd 5662 163f
00000100: da1f ff3e 797c e9bc e231 7cbc 5e50 af3c
00000110: c7bc b1bd bf7f 38be bcc8 e53e cf22 813e
00000120: 980d 8e3e f858 2abd 8a4c fabc 0604 923c
00000130: 33f3 a2bc 923c 4b3c 7052 93bd f4bf 1c3f
00000140: 24c3 20be 5aed 123f 5b81 7a3e 2e3d ad3e
00000150: 7a5d 163f 5cad 8f3e 0790 c8bb f749 12be
00000160: fe4e 8fbc f6bb 95bc 8bcd 193e 8f3a 9e3d
00000170: 2e77 38bc 586a f93e 29e5 afbb 1291 16bf
00000180: b314 e93d a595 6abe 1aa0 24bd b08d 213e
00000190: c148 993e 8e78 053e ebb0 433f a79f c4be
000001a0: 79a9 ebbe 7a65 873e e9a5 143f 26fa 30bc
000001b0: 12df 333f 7fbc 88bc e3da 64bc f59e 78bc
000001c0: 5d85 c13e be24 033f a41c d03d af9b 803d
000001d0: f1f3 c3be 4654 adbe 0c37 5c3e 3867 cf3e
000001e0: 4786 c3ba d19b 7c3e a65a f0bd b1af 16be
000001f0: ab90 43bc 8218 563c cb60 913e 47ff 21bd

encoder.0.weight f4 [128, 784]
-0.009490278 0.020279765 0.0100530535 -0.024131725 0.01466063 -0.034321006 0.01075045 -0.017539531
0.017767906 -0.012976984 -0.003953118 -0.030531302 -0.024675187 0.034597006 -0.0018294379 -0.022266427
0.022586137 0.01593472 -0.014799906 -0.00811048 0.008713778 0.0325615 0.029543873 -0.007491734
0.030527648 -0.03530491 -0.030205553 -0.031756174 -0.0340673 0.029198293 0.032027442 -0.010375893
-0.019264158 -0.024760358 -0.015887925 0.016764134 -0.010933928 -0.010494404 0.026115593 -0.0061996505
-0.0036532544 0.008084476 0.004808355 -0.0054058824 -0.0349633 -0.030272141 -0.003948834 0.028817836
0.00017346814 -0.026079992 0.016481124 -0.030914567 0.026958663 0.021342117 0.03409909 0.012684558
-0.031628802 -0.018408848 -0.014493929 -0.022083104 -0.027573796 0.009555206 -0.013364077 -0.022424197
-0.020565188 0.031243298 -0.0080506 -0.011567349 0.012893348 -0.021632044 -0.012807872 0.026332
0.0040956778 -0.014933887 0.030867679 -0.03196055 0.03125852 0.0058797076 -0.008477906 0.0043760277
0.01231093 0.017877929 -0.021435618 -0.019042522 -0.008197274 -0.023259122 -0.032520287 0.006404478
-0.01179565 0.00897558 0.029420823 -0.013609707 -0.016283745 0.020262623 -0.019196691 -0.020001823
0.022818433 -0.03278309 -0.040232245 -0.0026048543 -0.038270995 0.0040636254 -0.005968746 0.021258287
0.0056456206 -0.0048955516 0.023358842 -0.029432312 0.015415676 0.0055979714 0.019264396 -0.032024827
-0.012593146 0.026906502 0.030008603 0.033643316 -0.011893801 -0.024265792 0.027110582 -0.022301942
0.01754622 0.008289906 -0.0035469683 -0.029147489 -0.02231045 -0.013511543 -0.025905825 0.006524838
0.008731762 -0.0271805 0.028435584 0.005611803 -0.035597295 -0.0028297906 -0.008097729 -0.0089664385
0.018902555 -0.02731933 -0.029613014 -0.0032879487 0.013644312 -0.003700193 -0.033153523 -0.031818867
0.002357632 -0.0024405522 0.006825646 -0.010156552 0.005775361 0.009850497 -0.008449972 -0.027473103
-0.009030531 0.025609922 -0.002338027 -0.022372905 0.010011252 -0.015065067 0.0102805905 -0.025765162
-0.0058429083 -0.032130264 -0.028399553 -0.008635505 -0.00020054761 0.007845048 0.01375436 0.019506749
-0.024669252 0.0016761534 -0.011655191 0.008832686 -0.012690732 0.029644495 -0.033178825 0.0048844004
-0.0029666203 -0.03676952 0.028065547 -0.025786377 -0.015565662 -0.008179725 -0.017815834 -0.016633827
0.025472682 -0.011097362 0.015981048 -0.040675465 0.019854052 0.0018982671 -0.035194557 0.012800465
-0.0331687 0.01249972 -0.004314281 0.015996754 -0.033949036 -0.00237602 0.025181416 -0.032789033
0.030881714 -0.021226259 -0.0058888886 0.01716479 0.020500293 -0.0258479 -0.024581233 -0.04201261
-0.038040034 0.010529909 -0.013416376 -0.044667777 -0.032021176 -0.022925805 0.0049809157 -0.039624456
0.019841235 0.021822529 -0.03148329 0.024495099 -0.008677852 0.014590658 -0.01048094 0.018279735
-0.021681178 -0.02004071 -0.02033218 0.015299734 -0.013572553 0.021303682 -0.03612361 -0.02716519
0.003415412 -0.04464217 -0.022992251 -0.03964769 -0.033512957 0.022723952 0.005374674 0.0049512438
0.020067515 0.01968795 -0.03512431 -0.021353094 -0.01569275 -0.03562048 0.009656755 -0.010335584
0.02477885 -0.00020824745 0.021699507 -0.008813053 -0.0002776496 0.023542091 -0.024432298 -0.008305924
00000000: 1c7d 1bbc c021 a63c 90b5 243c e5af c5bc
00000010: 2433 703c 2f94 0cbd a822 303c 10af 8fbc
00000020: 008e 913c 6a9d 54bc 2889 81bb c81c fabc
00000030: 9e23 cabc 97b5 0d3d c0c9 efba 1568 b6bc
00000040: 9006 b93c 8889 823c 4e7b 72bc d2e1 04bc
00000050: 3cc4 0e3c 355f 053d fe05 f23c 387d f5bb
00000060: 1e15 fa3c e29b 10bd a371 f7bc c312 02bd
00000070: 278a 0bbd 4231 ef3c 352f 033d a6ff 29bc
00000080: decf 9dbc 3cd6 cabc 6527 82bc f054 893c
00000090: 3824 33bc b8f0 2bbc 5ef0 d53c 7026 cbbb
000000a0: 706b 6fbb c074 043c 688f 9d3b d423 b1bb
000000b0: ad35 0fbd 48fd f7bc 3865 81bb 6213 ec3c
000000c0: 00e5 3539 b5a5 d5bc 6c03 873c 8c40 fdbc
000000d0: 6ad8 dc3c aad5 ae3c 7dab 0b3d e4d2 4f3c
000000e0: 348d 01bd 27ce 96bc f277 6dbc a0e7 b4bc
000000f0: 71e2 e1bc 708d 1c3c 00f5 5abc f3b2 b7bc
00000100: 5378 a8bc f2f1 ff3c aae6 03bc fa84 3dbc
00000110: 9f3e 533c af35 b1bc 1cd8 51bc 35b6 d73c
00000120: 0935 863b 43ad 74bc 37de fc3c 11e9 02bd
00000130: ef08 003d 90aa c03b eae6 0abc c864 8f3b
00000140: c8b3 493c bc74 923c c099 afbc 10ff 9bbc
00000150: dc4d 06bc ea89 bebc fe33 05bd a8dc d13b
00000160: 8b42 41bc 500e 133c f003 f13c 40fb 5ebc
00000170: 7d65 85bc cdfd a53c 6142 9dbc ddda a3bc
00000180: b9ed ba3c 9047 06bd 91ca 24bd 34b6 2abb
00000190: 0cc2 1cbd 2928 853b 7895 c3bb dc25 ae3c
000001a0: e6fe b83b dd6a a0bb 0b5b bf3c 081c f1bc
000001b0: 0892 7c3c 306f b73b 5ed0 9d3c 772c 03bd
000001c0: 7c53 4ebc 066b dc3c 9ad4 f53c 93cd 093d
000001d0: 38de 42bc 0ec9 c6bc 0317 de3c 90b2 b6bc
000001e0: 17bd 8f3c 63d2 073c 4174 68bb b7c6 eebc
000001f0: 68c4 b6bc 855f 5dbc 7438 d4bc 4fce d53b
00000200: aa0f 0f3c a4a9 debc bef1 e83c 37e3 b73b
00000210: 78ce 11bd 0274 39bb 56ac 04bc f8e7 12bc
00000220: 88d9 9a3c cacc dfbc fe96 f2bc a07a 57bb
00000230: 648c 5f3c f07e 72bb fdcb 07bd 8054 02bd
00000240: 8082 1a3b acf1 1fbb aba9 df3b ab67 26bc
00000250: 3d3f bd3b fb63 213c c071 0abc 460f e1bc
00000260: cbf4 13bc e6cb d13c 9639 19bb 6247 b7bc
00000270: 3c06 243c 79d3 76bc ec6f 283c 7611 d3bc
00000280: de75 bfbb 069b 03bd 2ea6 e8bc ef7b 0dbc
00000290: 174a 52b9 8488 003c f859 613c 9ecc 9f3c
000002a0: 2c17 cabc 60b2 db3a 6af5 3ebc f8b6 103c
000002b0: caec 4fbc 03d9 f23c 85e6 07bd 520d a03b
000002c0: a16b 42bb a39b 16bd b8e9 e53c f43d d3bc
000002d0: 1e07 7fbc 4104 06bc 83f2 91bc aa43 88bc
000002e0: 16ac d03c b6d1 35bc b0ea 823c 519b 26bd
000002f0: f7a4 a23c 46cf f83a 2b28 10bd 0bb9 513c
00000300: e7db 07bd a0cb 4c3c d05e 8dbb a00b 833c
00000310: 250e 0bbd 00b7 1bbb 4249 ce3c cb4d 06bd
00000320: a6fb fc3c b1e2 adbc 94f7 c0bb 2c9d 8c3c
00000330: 3bf0 a73c fabe d3bc 955e c9bc 6a15 2cbd
00000340: decf 1bbd a485 2c3c 5cd0 5bbc 8ff5 36bd
00000350: a328 03bd e6ce bbbc f336 a33b 414d 22bd
00000360: 168a a23c 29c5 b23c 9ff4 00bd f2a9 c83c
00000370: 8d2d 0ebc a80d 6f3c 40b8 2bbc 62bf 953c
00000380: ba9c b1bc 6a2c a4bc ac8f a6bc bcab 7a3c
00000390: 6a5f 5ebc 0f85 ae3c 5af6 13bd 8889 debc
000003a0: 1bd5 5f3b b5da 36bd 3f5a bcbc 9e65 22bd
000003b0: e244 09bd 9527 ba3c 091e b03b 0b3e a23b
000003c0: a164 a43c a048 a13c 82de 0fbd afec aebc
000003d0: 158e 80bc c8e6 11bd 5e37 1e3c 9556 29bc
000003e0: 04fd ca3c 005d 5ab9 2ac3 b13c a064 10bc
000003f0: 8091 91b9 58db c03c 3e26 c8bc 9215 08bc

encoder.2.bias f4 [64]
0.1001904 -0.04245652 0.32004294 0.097452216 -0.08179494 -0.124656 0.38371864 0.28696507
0.2823198 0.55710804 0.34353393 -0.19834895 -0.47826988 0.44368002 0.44039932 0.2746593
0.89612424 -0.10004689 -0.0353448 0.02326645 0.47026098 0.18081395 0.074697055 -0.13676444
0.3375762 -0.0514555 0.14110501 -0.06807717 -0.12446368 0.15054785 0.19500686 0.2895572
0.4533796 0.4562951 0.8248566 0.0736573 0.3696605 0.028651215 -0.025844943 0.07430064
0.11289596 0.14143953 0.012416679 -0.11623475 0.017567966 -0.17989956 0.719131 0.43338624
0.5211375 0.41372582 -0.032518446 -0.11201314 0.10469457 0.0033014747 -0.10066714 0.5089342
0.3217928 0.34511232 -0.03484739 0.18049085 -0.099711545 0.05030831 0.29736745 0.34637952
00000000: a030 cd3d e3e6 2dbd abdc a33e 0795 c73d
00000010: 1b84 a7bd a54b ffbd c576 c43e 16ed 923e
00000020: 398c 903e a29e 0e3f aee3 af3e fd1b 4bbe
00000030: cadf f4be 072a e33e 057c e13e 25a0 8c3e
00000040: 6668 653f 62e5 ccbd b6c5 10bd 4899 be3c
00000050: 0cc6 f03e 4b27 393e c5fa 983d fa0b 0cbe
00000060: cad6 ac3e 01c3 52bd d57d 103e 0b6c 8bbd
00000070: d0e6 febd 3729 1a3e e1af 473e d740 943e
00000080: 5f21 e83e 839f e93e cd29 533f a3d9 963d
00000090: 2444 bd3e f4b5 ea3c c6b8 d3bc ef2a 983d
000000a0: ff35 e73d 86d5 103e 546f 4b3c 7c0c eebd
000000b0: b2ea 8f3c 9737 38be f818 383f cde4 dd3e
000000c0: 4469 053f dfd3 d33e 1032 05bd 2567 e5bd
000000d0: 1b6a d63d 8e5d 583b 932a cebd 8349 023f
000000e0: 07c2 a43e 90b2 b03e 23bc 0ebd 98d2 383e
000000f0: 9135 ccbd 1610 4e3d 8c40 983e a858 b13e

encoder.2.weight f4 [64, 128]
-0.037387628 -0.022770459 0.00097227376 0.04669539 0.0014191535 0.097846754 0.08323908 0.20841347
-0.04498469 -0.12182964 -0.060743906 -0.10489442 0.03692958 0.10638529 -0.15444653 0.09374114
-0.0027918331 -0.03585833 0.06655786 0.106181145 0.036884718 -0.02338484 -0.063133694 0.13418885
0.030733284 0.0024795777 0.019043893 0.023443934 0.034174692 0.0013607215 -0.026075186 0.04704726
0.0017530523 -0.07108179 -0.015247004 0.121835336 -0.10505534 0.0058614407 -0.02867493 -0.0752433
0.036271054 -0.17951246 -0.02819635 -0.072774395 0.11885374 0.12576468 -0.059584647 0.024621056
0.1624115 0.07921329 -0.11575941 -0.05876987 0.09033042 0.02177171 0.07427806 -0.003819852
0.14443937 0.06265163 0.036090836 0.123730496 0.3589083 -0.047393966 -0.0016283555 -0.15080884
0.17559218 0.04192702 -0.06844174 0.08140926 -0.1251232 0.44344607 0.07809784 -0.1939712
-0.21201728 -0.018598272 -0.013231386 0.0886458 0.040406205 0.0023678292 0.15864915 0.101648
-0.06265735 0.0211607 0.03851235 0.079539336 0.09271353 0.012189695 0.08579003 0.078393064
0.07792127 0.009715516 -0.15464063 -0.07429912 0.047077633 0.04104157 0.02274197 0.1456005
0.35301748 0.08937625 -0.038530916 0.039076038 0.636606 0.08417449 -0.13347597 0.0019766204
-0.15631709 0.055934083 0.21254715 0.08819163 -0.10907209 -0.018985251 -0.048796006 -0.08669727
0.11738613 -0.10266535 0.08782533 0.117346406 0.05809144 0.17022759 -0.150658 -0.18314017
-0.0012162093 -0.01044706 -0.09668168 -0.05950982 -0.08783832 0.00977575 0.23048142 0.041008826
-0.012696118 -0.073977344 0.0018164909 0.040317312 0.005068347 0.009024543 -0.097952455 -0.05457689
0.030266263 -0.0046589016 0.04807541 -0.09871219 -0.091847345 -0.04223399 0.021176962 0.042801853
-0.009878547 0.04488599 0.021947294 -0.013085227 -0.032319892 -0.0618106 0.039932754 -0.1097419
-0.0193252 -0.09628593 -0.015901776 -0.076458484 -0.041013125 0.033907562 -0.028828297 -0.08779691
-0.05449455 0.044041675 -0.050681505 -0.01827499 0.022111664 -0.04987026 -0.07119421 -0.107246384
-0.04708287 0.022066262 0.018370684 -0.0361909 0.024910042 -0.08738646 -0.005739575 -0.08606573
-0.09834353 -0.055176582 0.005599002 -0.011977295 0.01733032 0.04741221 -0.05246704 -0.10000375
0.006010263 -0.04258003 0.025429346 -0.119857416 0.044664543 -0.044977378 -0.06332289 -0.049459666
-0.06320737 0.04215183 0.06265665 -0.025386069 -0.09182744 -0.05965789 -0.09218491 0.046697352
0.025009453 -0.017164145 -0.022045013 -0.053927954 0.010851428 -0.029253554 -0.011209957 0.03611295
0.065763146 0.032274455 -0.073626816 -0.0009522833 -0.07152946 -0.062918425 -0.08249659 -0.027689662
-0.0715624 -0.05452152 -0.076846376 0.051985018 0.067764 -0.11944204 0.014758384 -0.019684969
0.016463326 0.023080127 0.045928 -0.07339537 -0.05143074 -0.01129475 0.046899285 -0.06611417
0.029636072 -0.048710447 -0.1051781 -0.02620979 -0.04719919 -0.0053563365 -0.09712109 -0.0085738255
0.034205254 -0.007823361 0.004195062 -0.043376748 -0.046395604 0.06534924 -0.05027167 -0.005624096
-0.09095803 -0.037962336 -0.066226825 0.018872513 -0.05727414 0.018472508 -0.012819023 0.07162616
00000000: c523 19bd 1d89 babc 30e0 7e3a aa43 3f3d
00000010: e402 ba3a e163 c83d 4079 aa3d 576a 553e
00000020: de41 38bd d181 f9bd 9ace 78bd e3d2 d6bd
00000030: 7943 173d 88e0 d93d 3b27 1ebe 5bfb bf3d
00000040: 30f7 36bb 2fe0 12bd 7d4f 883d 8075 d93d
00000050: 6e14 173d 9091 bfbc 3d4c 81bd cd68 093e
00000060: 5ec4 fb3c 6980 223b f001 9c3c 7e0d c03c
00000070: c3fa 0b3d 3d5a b23a a19b d5bc a1b4 403d
00000080: adc6 e53a 5493 91bd 92ce 79bc ce84 f93d
00000090: 4127 d7bd 5411 c03b b0e7 eabc 2919 9abd
000000a0: f590 143d 1dd2 37be 08fc e6bc be0a 95bd
000000b0: 9769 f33d 75c8 003e 080f 74bd 19b2 c93c
000000c0: 334f 263e 943a a23d 4513 edbd adb8 70bd
000000d0: 28ff b83d 965a b23c 181f 983d 7b56 7abb
000000e0: eae7 133e 7f4f 803d fcd3 133d 6a66 fd3d
000000f0: d4c2 b73e 2d20 42bd 8b6e d5ba a26d 1abe
00000100: 70ce 333e abbb 2b3d 2f2b 8cbd e6b9 a63d
00000110: 4c20 00be 5d0b e33e c3f1 9f3d 63a0 46be
00000120: 0f1b 59be 675b 98bc 75c8 58bc ee8b b53d
00000130: fa80 253d 952d 1b3b ec74 223e d42c d03d
00000140: 7f52 80bd 3459 ad3c 20bf 1d3d 85e5 a23d
00000150: 97e0 bd3d 49b7 473c afb2 af3d 8b8c a03d
00000160: 3095 9f3d d42d 1f3c 1d5a 1ebe 232a 98bd
00000170: 7ad4 403d 351b 283d 5e4d ba3c 4c18 153e
00000180: b5be b43e e50a b73d 98d2 1dbd 320e 203d
00000190: 9cf8 223f ad63 ac3d edad 08be 308a 013b
000001a0: 9611 20be 231b 653d f6a5 593e d09d b43d
000001b0: 3061 dfbd f586 9bbc 52de 47bd 578e b1bd
000001c0: 2468 f03d 3642 d2bd c4dd b33d 5053 f03d
000001d0: 4af1 6d3d 2450 2e3e 1746 1abe 1989 3bbe
000001e0: 3669 9fba 252a 2bbc 0b01 c6bd 92c0 73bd
000001f0: 94e4 b3bd 782a 203c 5203 6c3e dff8 273d
00000200: 6103 50bc 6f81 97bd 5217 ee3a c423 253d
00000210: 6014 a63b addb 133c 4c9b c8bd 048c 5fbd
00000220: f4f0 f73c b3a9 98bb b9ea 443d 9e29 cabd
00000230: 761a bcbd 8cfd 2cbd 4f7b ad3c ff50 2f3d
00000240: a1d9 21bc 5fda 373d d0ca b33c 6c63 56bc
00000250: dd61 04bd 1d2d 7dbd 8790 233d 5cc0 e0bd
00000260: e24f 9ebc 8f31 c5bd 7144 82bc 4496 9cbd
00000270: 61fd 27bd a8e2 0a3d 5229 ecbc dece b3bd
00000280: ad35 5fbd 0b65 343d 6997 4fbd 6fb5 95bc
00000290: 8523 b53c c244 4cbd 45ce 91bd fea3 dbbd
000002a0: f8d9 40bd 4ec4 b43c 1e7e 963c e93c 14bd
000002b0: 2510 cc3c acf7 b2bd 0b13 bcbb 3b43 b0bd
000002c0: 5568 c9bd d700 62bd d577 b73b 6b3c 44bc
000002d0: 51f8 8d3c 4e33 423d aee7 56bd c4ce ccbd
000002e0: bef1 c43b 6668 2ebd 3451 d03c ce77 f5bd
000002f0: 2bf2 363d 333a 38bd 6eaf 81bd 3896 4abd
00000300: de72 81bd 66a7 2c3d 2152 803d 72f6 cfbc
00000310: 0610 bcbd d55b 74bd 71cb bcbd b945 3f3d
00000320: a0e0 cc3c d29b 8cbc be97 b4bc 8fe3 5cbd
00000330: 30ca 313c 26a5 efbc f8a9 37bc 2ceb 133d
00000340: d4ae 863d 3832 043d a8c9 96bd a7a2 79ba
00000350: 0a7e 92bd 60db 80bd f9f3 a8bd 6ed5 e2bc
00000360: 4f8f 92bd f551 5fbd a261 9dbd 3eee 543d
00000370: dac7 8a3d 079e f4bd 26cd 713c 5f42 a1bc
00000380: 19de 863c 8912 bd3c 001f 3c3d 5050 96bd
00000390: 0aa9 52bd 9d0d 39bc 7719 403d de66 87bd
000003a0: 59c7 f23c 9b84 47bd 9e67 d7bd eab5 d6bc
000003b0: f053 41bd 3584 afbb 6ce7 c6bd 3b79 0cbc
000003c0: cf1a 0c3d 8e2d 00bc bb76 893b d1ab 31bd
000003d0: 5109 3ebd d3d5 853d abe9 4dbd 564a b8bb
000003e0: 3448 babd 657e 1bbd eea1 87bd 879a 9a3c
000003f0: 4a98 6abd a853 973c e106 52bc bcb0 923d

encoder.4.bias f4 [12]
0.20178522 0.0011483787 0.24384688 0.6255308 -0.029648622 0.22382833 -0.1699835 0.0127486205
0.2280827 0.516147 0.094606884 -0.101601444
00000000: c9a0 4e3e 3285 963a ffb2 793e c922 203f
00000010: abe1 f2bc 4133 653e 2810 2ebe 97df 503c
00000020: 838e 693e 3622 043f 41c1 c13d 6b14 d0bd
