models/mnist_ae.safetensors (safetensors, 880168 bytes, 12 tensors)

decoder.0.bias f4 [64]
00000000: 7395 87be afb5 c23e f7bf 2f3f 3fbe 173f
00000010: 13d2 1a3f 2c00 723c b35e 153f f917 1e3f
00000020: cf45 2fbf 6809 9bbc fc57 5a3f 769f 7c3f
00000030: 0ae6 243f 6700 3c3f 86cf fbbd 5cbe 16bf
00000040: 8eee 713e a820 923d 3e84 8abe 0bde 39bd
00000050: ef22 a5be 39ee f3bd e34d 483e fb9a 37bd
00000060: 6a4c 9f3e 1595 303f d6df e63d f732 d13b
00000070: d951 7bbe 720d 55bf 3899 aebd 0eb3 2b3f
00000080: db1a bd3e affe 213f 5d60 2bbf ab2d a73e
00000090: 5778 8c3e 4337 b93e caa0 7dbf 76f6 d43e
000000a0: 4937 773e 3e01 43bd 699e 0d3e ef95 d93e
000000b0: 166f 143f b9fc c9bd 80d5 183f 1e4b 183f
000000c0: 8f21 82be 0b87 4cbf 8571 f43e e026 363f
000000d0: c994 953e 66b1 213e f68a 7abf ad3f 8fbe
000000e0: 9706 6dbf 767a 4c3f 669a 3a3e 6d24 923e
000000f0: 1755 143f aa37 50bf 15bc b63e c333 4f3f
-0.26481208 0.3802924 0.6865229 0.5927467 0.604768 0.014770549 0.58347625 0.6175533
-0.68465894 -0.018925384 0.85290504 0.9868082 0.6441351 0.73438114 -0.12295441 -0.58884215
0.23626158 0.07135135 -0.27054018 -0.045377772 -0.32253215 -0.11910672 0.19560961 -0.044825535
0.31112987 0.6897748 0.11273162 0.0063842493 -0.24542941 -0.8322364 -0.08525318 0.6707009
0.36934552 0.6327924 -0.66943914 0.3265203 0.27435562 0.36174974 -0.9907347 0.41594285
0.24142183 -0.047608607 0.1382996 0.42497203 0.57982004 -0.09862656 0.59700775 0.5948962
-0.25416228 -0.7989356 0.4774286 0.7115307 0.29215077 0.15790328 -0.9786829 -0.27978268
-0.9258818 0.7987436 0.18222961 0.28543416 0.57942337 -0.81334937 0.3569037 0.8093836

decoder.0.weight f4 [64, 12]
00000000: a051 903e 5c9e 5a3e 78f5 66bd 78fb 053d
00000010: e2de 83be 86f4 2bbe b04c 733e 0a4c 263e
00000020: ce2d 213e f133 8cbe 902a f6bc f319 8abe
00000030: 0c1f 823d 2140 dbbd b40d 9f3d 2165 e1bd
00000040: f491 88be d99e 5dbe b9a5 8a3e 1439 1abd
00000050: 05c1 d0be 3c92 e13d 0855 29be 3d00 c9be
00000060: 2808 87be 8423 e23d d50c d63e f301 993e
00000070: 44be c63d b242 a43e b894 083e ba8a af3e
00000080: a2ec f03d 95a1 88be f719 6cbe c6e0 b6be
00000090: 61e0 c23e 020d d33d 872c 563d c055 89be
000000a0: 3b6f 233e e81f 8f3e aaca 233e 0009 e7bd
000000b0: 1ba1 503d bf27 b33e 9fbb c13c 1903 b73c
000000c0: dbfe ccbe 76ad 19be 8669 dfbd 3443 243e
000000d0: 39af 43be 0a3c 133e c915 61bb aede 78be
000000e0: cd9b 23be 339f 363e ae83 0b3d 12eb 253e
000000f0: 78a0 3c3e b7e7 12bd 4dcc 3c3a 20b0 b4bd
00000100: d3db 3fbe 99f1 9e3d 555e 9abd d716 133c
00000110: b21b b5be 8d5f 5a3d d8d6 3d3e d17e 753e
00000120: 945b e6be fb48 5b3b 2c2e 903d 2dfb b73d
00000130: e410 793c dbfd 3c3d afef b0bb 5cab 993c
00000140: 7bdd 9abe d0d8 eebd c108 9cbd df13 cf3e
00000150: d502 353e 4be4 263c c133 463e be82 2c3d
00000160: 06a2 48bd 4f11 e93d 08e2 b3bd fbb8 a6bd
00000170: db3d 90bd f7f5 18be 79e6 a1be 1549 07be
00000180: 7fcc abbe 5e7d 303b 8c18 b13d 4da1 66bc
00000190: aa58 083e cf89 d6bc 9a45 86be f5a4 f63d
000001a0: 0961 67be 2ed2 19be cbbe b9be b4a2 80be
000001b0: e385 0b3f 1015 323e b9b2 313c 32b0 01be
000001c0: 25a3 e13e 01e9 143c 2fd8 dabd aba1 223e
000001d0: f4d0 eabe ba2f a5bd 0149 763e 5f4d 2d3e
000001e0: d8a9 a0be 5a45 103f e94e 5b3e 2f91 2fbd
000001f0: 22db b83c 38b9 fe3d 88bd 373d a8bf 50bd
00000200: f1e1 833e edb5 cabd a9d3 633e c213 4d3e
00000210: dc41 c03d c64b 343e e058 8c3b 16fe 82bd
00000220: e9a7 2b3e a063 b1bd 21b7 9bbe 0c00 873e
00000230: f817 69be ec52 b23d 018f 6ebe c5e9 23be
00000240: e4c7 d9bc 46ec d03c 41e4 c53d 9f70 a9bd
00000250: c113 cc3d 08f7 b7bd 544e c3bd 91a8 40be
00000260: 174b 973d 1979 783e d4ca 67be 4e21 b4be
00000270: 1130 34be dcbe 55be fd3b b83d f126 8ebd
00000280: 79d0 673d 2e22 bd3d 30d0 8fbd f93e 55be
00000290: dfa8 d0be 0b34 743d fadb 2e3e 2a21 d0be
000002a0: 319f c83e e895 263f 5fdc 5a3e 62e5 efbe
000002b0: 6bfc 20bd b830 a0be 8a4d 4bbc 4de1 8d3e
000002c0: ae66 8dbb 3207 23bd 3371 6a3d 6ba2 01bf
000002d0: b04e 9a3e 4bbe c6be 61c7 883e f30b 86bc
000002e0: 43e1 2f3e 5348 a8be 548f e3bd 8804 1e3d
000002f0: 47fb 3dbe b6d3 74bd ebf4 0cbe 3045 ed3d
00000300: af58 023f 2396 70be 0f9b 0cbf b677 023f
00000310: 3e10 d93e 437b dcbc 01f5 493e 8891 1c3e
00000320: 0831 263e 1a2d 393e 6917 fbbc 4886 21be
00000330: f360 183f 0eb1 043e 8aec 1dbd 8ab0 aa3e
00000340: ae1a 64be 55d0 74bd 0a98 6dbe 7553 a23e
00000350: 74e8 86be 61e9 70be ddd7 9d3c b368 1ebd
00000360: e4ee 7fbe 5f54 e13c dbbe 9cbd bc29 743e
00000370: ce8c acbe e2f2 ff3d 4c60 8d3c e4cf 95be
00000380: 47c1 993e ee06 37be ba3d 353e b0f0 89be
00000390: 450f 7f3e 0dda ca3c 09bd 953e 8c90 31be
000003a0: 50f1 893d 6c5d 423e f43d 11bd 2e0e b3be
000003b0: 5c08 82be 3d6c 16be 9213 60be d36c 243e
000003c0: 131a 9bbe 770e 983d 4337 473d b937 213e
000003d0: 507b 66be 7d4e 31be 2fe9 8ebe 9b07 d53c
000003e0: 8bd7 91be efad 343e 46a0 06be 04cb ea3e
000003f0: 4c86 01bd a71a 71bd 1d16 a73c e2dd d93e
0.28187275 0.21349472 -0.05638644 0.032710522 -0.25755984 -0.16792497 0.23759723 0.16239944
0.1574013 -0.27383378 -0.030049592 -0.26972923 0.06353578 -0.10705591 0.077662855 -0.11005617
-0.26673853 -0.21642627 0.2707956 -0.03765209 -0.40772262 0.1101422 -0.16536343 -0.39257994
-0.2637341 0.1104193 0.41806665 0.298843 0.09704259 0.32082134 0.13337982 0.34285527
0.11763884 -0.26685777 -0.2305678 -0.35718364 0.38061813 0.103052154 0.05228856 -0.26823235
0.159604 0.2795403 0.15995279 -0.112810135 0.050934892 0.3499126 0.023649035 0.022340344
-0.4003819 -0.15007576 -0.10908799 0.16041261 -0.19109811 0.14378372 -0.003434526 -0.24303696
-0.15977402 0.17834167 0.034061126 0.16202953 0.18420589 -0.03586551 0.0007202074 -0.08822656
-0.187362 0.07760925 -0.07537524 0.008977613 -0.35372692 0.05331378 0.18538988 0.23974158
-0.44991744 0.0033460248 0.070400566 0.08983455 0.015201781 0.046140533 -0.0053996663 0.018758468
-0.302471 -0.116624475 -0.07618857 0.40444848 0.17676862 0.010186265 0.1935568 0.042116873
-0.048982643 0.113802545 -0.087833464 -0.08140751 -0.07043048 -0.14937578 -0.3162115 -0.13211472
-0.33554456 0.0026930193 0.0864726 -0.014076543 0.13315073 -0.02618876 -0.26224977 0.12043182
-0.2259561 -0.15021583 -0.36278376 -0.25124133 0.5450117 0.17390847 0.010845833 -0.1266487
0.44069782 0.009088756 -0.10685765 0.15881984 -0.45862544 -0.08065744 0.24051286 0.16924046
-0.3137958 0.5635582 0.2141682 -0.042863067 0.022565428 0.124376714 0.044858485 -0.050964028
0.25758317 -0.09897981 0.2224871 0.20027068 0.09387562 0.1760703 0.0042830557 -0.06396119
0.16763271 -0.0866158 -0.30413154 0.26367223 -0.2276305 0.08707222 -0.23296739 -0.16007145
-0.026584573 0.025503289 0.096626766 -0.08273434 0.09964705 -0.08982664 -0.09536424 -0.18814303
0.07387369 0.24264945 -0.22635967 -0.3518166 -0.17596461 -0.20873588 0.08995817 -0.06941021
0.0565953 0.09235035 -0.070221305 -0.20824803 -0.40753838 0.059619945 0.17076102 -0.40650302
0.39183953 0.6507249 0.21373127 -0.46854693 -0.039303225 -0.3128717 -0.0124086235 0.27710953
-0.004315219 -0.039801784 0.05723686 -0.50638455 0.3013816 -0.38817057 0.26714614 -0.01636312
0.17175774 -0.3286768 -0.11111322 0.03857854 -0.18552886 -0.059772216 -0.13765304 0.11585462
0.5091657 -0.23494773 -0.549241 0.50963914 0.42395204 -0.026914245 0.19722368 0.15289891
0.16229641 0.18083611 -0.030650811 -0.1577388 0.5952293 0.12958166 -0.03855566 0.33337814
-0.22275802 -0.059768993 -0.2320253 0.31704298 -0.26349223 -0.23526527 0.01926797 -0.038674068
-0.24993473 0.027506052 -0.0765359 0.23844045 -0.33701175 0.12497498 0.017257832 -0.2926017
0.3003027 -0.17873737 0.17699328 -0.26941442 0.24908169 0.024762178 0.29245785 -0.17340297
0.0673548 0.1898095 -0.035459474 -0.34971756 -0.25397003 -0.14689727 -0.21882465 0.16057138
-0.3029333 0.07424634 0.048636686 0.15743913 -0.22507977 -0.17315097 -0.2791228 0.026004603
-0.2848476 0.17644475 -0.13147077 0.45858014 -0.031622216 -0.05886331 0.020396287 0.42552096

decoder.2.bias f4 [128]
00000000: 0414 09be fee2 d13e f894 f4be 5233 f7be
00000010: 1c9f 98be ccca c6be 32a7 113e 505f 5d3d
00000020: a584 133e 980e a13e 4fbc c1bd 21bf 22bd
00000030: 9c72 60bf bf74 ebbb 46a4 c9be 073f 12bf
00000040: 8c83 dabd 7383 c6bd d24a 7a3e 20ba 673e
00000050: a565 11bd 9071 7e3d a93a b03e 0749 3d3e
00000060: a6f5 f2bd 5921 0c3e 6227 a3bd 1554 c5bd
00000070: 9510 773e 4f50 e93a 4c5c 343e c17e 8ebe
00000080: 2def ec3d 5bd3 edbd e768 863e fa3a b43e
00000090: f990 e8be 838c cd3c e982 b6bd 0321 04be
000000a0: e8b2 453d 936f d9be 3e4e a3be 000b 09bd
000000b0: 6c88 b2bd c142 083e c26a 323e c081 f5bd
000000c0: ee7f 91bf 7c03 08bf 6479 103e df4a dd3e
000000d0: 5f07 a4bd 6330 ef3d 00e4 e2bd a98d 0fbe
000000e0: cca0 bbbb f999 5f3c fbab ab3d 1d64 0a3d
000000f0: 18e6 14bb a88b a5bd 83e3 d0be 75d4 bdbe
00000100: 25e0 87bd c431 333e abfe 043e f9f4 0a3e
00000110: 10e8 183c 660e 68be abc7 56bd 79cf febd
00000120: 2d99 bfbd c222 ad3d 5583 03bf acbd 093f
00000130: e0fc 743d 9315 7f3e 92ba a83e 0ba2 013e
00000140: e437 ce3e 3ca4 a63e b989 bfbd 320f ffb9
00000150: 4141 0c3e a496 703e 1f92 b5be 775e 34be
00000160: d548 463e 726d 4a3e 6e67 1ebd 0780 17bf
00000170: 0541 45bd 4b64 dcbc 172b 00bf 73ac 1cbe
00000180: 9539 be3e 0764 efbd 6036 303e 184f 26be
00000190: e472 e83d d443 11be 848c ff3e d41c 503e
000001a0: 6810 1abd 5f61 e5bb 4c3d 2a3e 0384 ab3e
000001b0: 17cc 7a3d 4329 383e 4c8e c2bd 8268 5e3e
000001c0: f17a c43e b311 533e 84ef dcbe 0db6 9bbe
000001d0: 9540 13be 7d6e dfbd bf59 223e 6ca0 863e
000001e0: 1783 623e 1c11 e33d 8d94 a43e 9640 213f
000001f0: 446c 0bbe 4041 073e e6e0 3b3e f348 8ebd
-0.13386542 0.40993494 -0.47769904 -0.48281342 -0.2980889 -0.38826597 0.14223936 0.054045975
0.14406069 0.31456447 -0.09459745 -0.039733056 -0.8767488 -0.007185548 -0.39383143 -0.5712742
-0.10669622 -0.09693041 0.24442604 0.22629595 -0.035497326 0.06212002 0.34419754 0.18484889
-0.1186326 0.13684596 -0.07966496 -0.09635178 0.2412742 0.0017800423 0.17613333 -0.2783108
0.11569057 -0.116125785 0.2625191 0.35201246 -0.45423105 0.025091415 -0.08911688 -0.12903218
0.04826632 -0.42467937 -0.31895632 -0.033457756 -0.08717427 0.13306715 0.17423537 -0.119876385
-1.1367166 -0.53130317 0.14108807 0.43221185 -0.080092184 0.11679151 -0.11078644 -0.14018883
-0.0057259556 0.01364755 0.08382412 0.03378688 -0.0022720154 -0.08083278 -0.40798578 -0.37076154
-0.06634549 0.17499453 0.12987773 0.13570012 0.009332672 -0.22661743 -0.052436512 -0.12441916
-0.09355388 0.08453895 -0.5137227 0.5380504 0.059811473 0.24910574 0.32954842 0.1265947
0.40277016 0.32547176 -0.093524404 -0.00048648712 0.13696767 0.23494965 -0.35463044 -0.1761416
0.1936372 0.19768313 -0.038672857 -0.5917973 -0.04815771 -0.026903292 -0.5006575 -0.15300159
0.37153307 -0.116890006 0.17208242 -0.1624111 0.11350039 -0.1418603 0.49911892 0.20323497
-0.037613302 -0.007000133 0.16624945 0.33499154 0.06122979 0.1798449 -0.09499797 0.21719554
0.38375047 0.2061222 -0.43151486 -0.3041233 -0.14380105 -0.10909746 0.15854548 0.26294267
0.2212032 0.11087248 0.32144585 0.62989175 -0.13615519 0.13208485 0.1834751 -0.06947508

decoder.2.weight f4 [128, 64]
00000000: f2c1 a83d 897f 793d 2297 b03c 9add a53d
00000010: ad69 b9bd 125e 9f3d 2ae8 4abd 119b 893d
00000020: a66e efbd 64df 7ebd a33b ecbd b4c0 4fbc
00000030: 4585 d03c a1da afbc 9251 5839 ecc8 d0bd
00000040: 2cb0 dc3d 0d78 eabd 08ec e9bd 496c 24be
00000050: f527 06be ee17 873d 8a2a 843c 9894 843c
00000060: 4392 e7bd d86b 52bd 76b3 0ebe 222d f8bb
00000070: 0b8c 5abc f8be 003d 30c3 16bd 189e f93d
00000080: c785 afbd 502b 6cbd 0e4b 5d3b 3c89 b8bc
00000090: a4ea b9bc d217 fcbd af2b 1d3d 5cd5 753d
000000a0: ff84 923d 33e7 13bd f3bb bd3d 3b48 313d
000000b0: 3d99 173c 70ce c0bd a55b 1fbe 394e 13be
000000c0: 72e7 2cbd 960a 303d 38bc 733d 2220 163d
000000d0: f36b fd3c 20c5 c1bd 2754 af3d 6a8a 8b3d
000000e0: 9994 06be 1b70 363c 64d9 0cbe a675 663d
000000f0: b001 62bc 4c76 f4bd 9de7 47bd 1614 913d
00000100: 1845 b4bd da3f c93d 04e2 103c db8c 613d
00000110: 6c2e b1bd a928 c3bc bc07 ab3d 2eb4 723e
00000120: 1ba7 d2ba e1ca 9c3d b5c9 ec3d 6549 733e
00000130: ae93 b43c c3ce 86bd 52af dd3e eda0 ffbd
00000140: 0d26 853d 9e19 153e f3ed 0a3d ec4a df3d
00000150: 361d cabc cf70 27be de58 643e 4fcb 9bbc
00000160: 517a 1abe 6eb5 1b3e d18b bcbd d591 65bd
00000170: b5d4 3b3d 45b8 86bd 0be2 523e ce9a a73d
00000180: 5cb3 fabd dccc 603d cbcf 28be ea02 1fbd
00000190: 405d 0cbe b652 4cbd c8f5 a6be 4751 e63d
000001a0: fffb 1c3e 2567 133e ec8b d0bd 12ec a63d
000001b0: 8e12 ac3d 2ad3 693d a371 263e 4c8d 843d
000001c0: c692 003d ec4b 3bbe 0e12 54bd d6cc d13d
000001d0: 1e67 6c3b 29d6 743e 742e 56be cdb5 eebd
000001e0: 2d62 b4bd 7424 123e e9b5 4cbd 75a5 633d
000001f0: 873b 98bc cb51 08bd dc29 373d 5325 0d3d
00000200: a88f b73d cbc0 4b3e a15d d7be 4991 813e
00000210: e349 97bd db8c d83d e6c8 c3bd 7a20 1c3c
00000220: 4858 4dbd de54 8ebd f7fd c5bd 2cf2 c83d
00000230: f631 dc3d e23e 843e 27c5 943c 9091 18be
00000240: 828d d93e 4842 0b3b f86d ba3c 572e 11be
00000250: 10ab 733d 7df1 11be 6346 14be 4b4e 843c
00000260: f42d 03be 81cb 753e 2a9e acbd 6c8f eb3d
00000270: 2964 83bd ecec 853e 4584 b6bd 0ea6 38be
00000280: b43f 8fbe f463 5abe db00 c33d 65cf 5dbe
00000290: 9978 1bbe 775f 04be fa07 a9bd 4d67 943e
000002a0: 9cba 1b3d 9bf5 963e db10 763e 0b05 9cbd
000002b0: eaf5 bcb9 cae9 e6be 033c 05be a419 2fbe
000002c0: 8ce8 eb3c 413d e43d 9d7c 88be 996e aebc
000002d0: ebf2 823e 0c37 463e e24e 433e 7625 c83d
000002e0: 8b76 6a3c 495a 363e 21f8 45bd b45d c8ba
000002f0: 9160 47be e16b a63d f054 063c 217e 33bd
00000300: 7e27 d73d 3523 6e3d 9f9d febd 51ce 99bd
00000310: f18c b4bc 490c 93bd 954b abbe 0ec6 0cbe
00000320: bb2e 023e 20ef 723e 5656 2abe 2422 d1bd
00000330: 74e8 30bd e732 123d 2fbe 813d aa8d 73bd
00000340: 9952 58be 3676 7d3d 7fa6 cf3b 63ce 06be
00000350: 0bf9 6a3b 3bb7 31bd 8fad 2dbe 1189 2c3d
00000360: 58cd f23d f5c8 a8bd 1007 e53d 8614 1abe
00000370: d7a5 0c3e 74d1 5a3e ebaf aabc 3f4a f73d
00000380: e327 a0bd 1028 073d ed36 973e 3d7b 4f3e
00000390: 41d5 07be 403e 0dbe fddd 733e 20c0 9bbd
000003a0: 83b2 bfba 976f 45be 22df 323c d024 e83d
000003b0: d9cc a7bd adf5 6a3e ef85 e8bb 107c 9cbc
000003c0: e65a 613d cab7 693d aefc 76be 7ba3 c2bd
000003d0: d253 25be 3f13 c03d be04 2e3e 45e3 20bb
000003e0: 2abe 203e c77f 9f3d 26b1 be3d ff99 253e
000003f0: 4c0b 39bc 19d5 82bd 711a 8f3c fbf6 043e
0.08240117 0.060912643 0.02155644 0.08098908 -0.09053359 0.07781614 -0.049537815 0.0671903
-0.116910264 -0.06222476 -0.11534812 -0.012680221 0.025454173 -0.021466555 0.00020629753 -0.10194573
0.107757896 -0.11448679 -0.114219725 -0.16056933 -0.1310118 0.06596361 0.016133565 0.016184136
-0.11307194 -0.05137238 -0.13935646 -0.0075737396 -0.013339053 0.031432122 -0.03680724 0.12188357
-0.08570438 -0.057658494 0.003376666 -0.022526376 -0.022694893 -0.12309231 0.038371738 0.06001793
0.07154273 -0.03610916 0.09264364 0.043281775 0.009252843 -0.09414375 -0.15562303 -0.14385308
-0.04221291 0.042978846 0.05950567 0.036651738 0.030935263 -0.09461427 0.08560973 0.0681351
-0.13142623 0.011135126 -0.13754803 0.056264542 -0.013794348 -0.11936626 -0.048804868 0.07083909
-0.08802241 0.09826632 0.008842949 0.05506597 -0.086514324 -0.0238231 0.083510846 0.23701546
-0.001607153 0.076558836 0.1156191 0.23758467 0.022043075 -0.065824054 0.4329782 -0.12481866
0.06501398 0.14560553 0.033918332 0.10902962 -0.024672132 -0.16351627 0.22299525 -0.019017844
-0.15085723 0.15205929 -0.09206355 -0.05604728 0.04585715 -0.065781154 0.20594041 0.081838235
-0.12241241 0.05488287 -0.16485517 -0.03882114 -0.13707447 -0.049883567 -0.3260939 0.11245971
0.15330504 0.14394815 -0.10182938 0.081504956 0.084019765 0.057086147 0.16254286 0.06472263
0.031389974 -0.1829068 -0.05177503 0.102441475 0.0036072205 0.2390982 -0.20916158 -0.116557695
-0.08807788 0.14271718 -0.04997817 0.055577714 -0.018583072 -0.03328113 0.044717655 0.034459423
0.08962947 0.19897763 -0.4206362 0.25306156 -0.0738714 0.10573741 -0.09559803 0.009529227
-0.05013302 -0.06949781 -0.096675806 0.098118156 0.10751717 0.25829226 0.018160416 -0.14899278
0.42490774 0.0021249224 0.022757515 -0.14177833 0.05948931 -0.14252277 -0.14479975 0.016150614
-0.12810498 0.24003412 -0.08428605 0.11501965 -0.064155884 0.2615732 -0.08911947 -0.18032095
-0.2797829 -0.21327192 0.095216475 -0.21661146 -0.15182723 -0.12927042 -0.082534745 0.28985062
0.03801976 0.29484257 0.24029867 -0.07618149 -0.00036041375 -0.45100242 -0.13011174 -0.17099625
0.02879741 0.11144496 -0.26657572 -0.021292971 0.25575957 0.19356936 0.1907306 0.0977277
0.014310489 0.17807879 -0.048332337 -0.0015286715 -0.19470431 0.08126045 0.008198962 -0.043821458
0.105055794 0.058139045 -0.124324076 -0.07510055 -0.022039862 -0.071800776 -0.33456102 -0.13747427
0.12713139 0.23724031 -0.16634497 -0.1021159 -0.043190435 0.035693076 0.06335103 -0.059461273
-0.21125259 0.061880313 0.0063369866 -0.13164668 0.0035854008 -0.043387633 -0.16960739 0.042122904
0.118555725 -0.082414545 0.11182988 -0.15046892 0.13735138 0.21368963 -0.020835837 0.12074708
-0.07820108 0.03299719 0.29534093 0.20261855 -0.13264944 -0.13793278 0.2381515 -0.07605004
-0.0014625344 -0.1928085 0.010917457 0.113351464 -0.081933685 0.2294528 -0.0070960443 -0.019102126
0.055018328 0.05706004 -0.24119827 -0.09503838 -0.16145256 0.09378671 0.16993997 -0.0024549526
0.15697542 0.077880435 0.09311132 0.16172026 -0.011294197 -0.063883014 0.017468663 0.1298484

decoder.4.bias f4 [784]
00000000: da66 eebd ca66 f53b a93a 113d 738d 653d
00000010: 0c42 8abd c44c 8ebd f4a3 81bd b303 dbbd
00000020: 21ff eebc a20b c9bd 87f6 debd 50a2 fd3c
00000030: 4029 b5bd c050 b5bd f0f4 a13c a38e 95bd
00000040: 8708 2fbd a2f3 f23b e35b f93c 18ab cbbd
00000050: 538b d3bc ecb2 d1bd 73b8 7fbd c2d7 0abd
00000060: b2bc 0cbd ab93 92bd e593 1cbd 7ed9 63bd
00000070: b4a1 433d 1935 15bd df2b 63bd b9a8 e93c
00000080: 5128 fa3a a120 d5bd d3af 193d d5f0 9fbd
00000090: 6a02 96bc 18f1 443c 109e 103d 9c5d 2bbd
000000a0: 21ab 203c 8d6a f13c b3cc 56bd dca5 f1bd
000000b0: 2e17 8ebd b0c8 273c 4edd 3dbd 2721 203d
000000c0: 31f3 473d 2a3c 39bd 4c7a 9cbd 1f79 dfbd
000000d0: eb09 46bc 5080 e8bd d8d2 143c 39a2 7fbd
000000e0: 3478 5e3c f5b5 573d ad24 50bd 6d0c 0bbc
000000f0: c54b a0bd 8906 86bd 20e5 233d 7fbe dfbd
00000100: 010d dbbc ec10 e43b 327e d1bd 6958 95bc
00000110: 6260 81bd fcea 1fbe df34 0bbe 8b65 2bbd
00000120: b50f 14be 8e78 f7bc fd00 0ebe cf8f 20bd
00000130: 6a02 28bd 11ef 173d 9227 133d 8cbd 9dbd
00000140: b850 cfbd 71a9 63bc 85d0 12bc cf02 393d
00000150: 8042 62bd efd6 0b3d 974c 63bb aaee 0abd
00000160: 2634 b8bd 91ee 3b3d ccbc 7fbb 7905 d6bc
00000170: 6ed5 2f3c b1c3 1fbe 686c 0dbe 19be 6dbd
00000180: 3b0a 28be ac02 b8bd a677 68bd 2ef3 05be
00000190: f020 bcbd a3c7 0cbe 9fb7 47be 354d 17be
000001a0: 49cf 44bd f3c7 be3b 1aee a0bd e1ac 263b
000001b0: 6008 6d3d 45e7 8f3c 7605 f9bc 4690 70bc
000001c0: ede3 f13c e789 df3b a46b a3bd 096d 89bc
000001d0: c282 c8bd ff16 aebd 838d cf3b 2ae2 33be
000001e0: 8cf7 b2bd 50bd 14be 308b bfbd 5436 dfbd
000001f0: 16d5 10be ccc1 4dbe 0bd5 92be fa38 65be
00000200: 6569 57be 4354 2bbe 21cd 8bbe 2f5b 3dbe
00000210: 870a fcbd 8ae0 4abd d543 17be ee97 e3bd
00000220: 2b8f 033d 6a53 fc3c 8e32 a83c db8c 0e3c
00000230: 62f6 923c e816 9bbd b1d6 1fbd a91b 49bd
00000240: c080 8cbd f94b 05be dfd2 49be 7131 09be
00000250: 6cdf 0cbe 5f90 22be 1daa cdbd cc66 3cbe
00000260: 1056 edbd 3320 ffbd a8c2 65be 12a4 4dbe
00000270: 595a 2dbe 12ff 84be ce8c dcbe 1d40 8bbe
00000280: 6ba6 70be 79f1 8dbe 293b 78be 7b61 00be
00000290: db3a a1bd ae77 323d 3abd 503c b8ba d0bd
000002a0: a795 713d 5f28 86bd 7846 eebb b9c9 4dbd
000002b0: c83b dabc 98f3 d2bb d45a 38be 82b1 21be
000002c0: df2c 89bd c033 41be cc97 f1bd 4f07 edbd
000002d0: e154 95bd 3026 a8bd 026e 07be edb1 e7bd
000002e0: 84da 84be eb7d a6be 6eeb aabe 1154 94be
000002f0: da14 60be a3e0 13be 8d5a 09be e575 e2bd
00000300: 0be1 babd 2983 e4bc 847d 9ebd 47d1 13bd
00000310: b6f7 a9bc 46d0 efbc 58af 67bc 4e2e 4cbd
00000320: 7777 d6bd 0767 cbbd 735f ccbd 229c 6abd
00000330: 5acc 5ebd a2ba 8fbd aa57 87bd 6e59 33bc
00000340: d27e 8abc 9308 5abd bf1f 12be c699 5dbe
00000350: 85a6 82be 4b2f 5abe 323d 2ebe 5072 febd
00000360: 2b18 23be 6907 87bc 7f40 d1bd 35f2 c13c
00000370: 40c1 653d 8f2b 84bd 964c 56bd 576e 6d3d
00000380: 755d 08bd 3274 96bd 23f7 123d a70c 14be
00000390: ba3b cbba 8547 2fbd ebae fdbd 469a 97bc
000003a0: e070 c73c 113f 98bd 193e a3bd 1481 dabd
000003b0: 6d9a 1abd 5deb 50be cbca 7dbe d703 dbbe
000003c0: aeef a1be 2434 93be 0230 36be f425 f9bd
000003d0: 0db1 37bd 6601 93bd d008 473d d439 573d
000003e0: f17c d0bd 0081 2f3d 4cec 41bd cc3d 64bd
000003f0: 023e bd3c 59d1 3abd 462c 25bd 9a5f a8bd
-0.11640711 0.00748906 0.035456333 0.0560431 -0.06750879 -0.06948236 -0.063301 -0.10694065
-0.02917439 -0.09816672 -0.10886865 0.030961186 -0.088457584 -0.088532925 0.019770116 -0.073025964
-0.04273274 0.007414297 0.030439323 -0.09944743 -0.02582327 -0.10239205 -0.062431764 -0.03389717
-0.03435964 -0.07157072 -0.03822698 -0.05562734 0.047761634 -0.03642759 -0.05546176 0.028522836
0.0019085502 -0.10406614 0.037521195 -0.07809607 -0.018311698 0.012020372 0.03530699 -0.04183732
0.009806425 0.029469753 -0.05244131 -0.11799213 -0.06938015 0.010240719 -0.04635363 0.039094117
0.04881591 -0.045223393 -0.07640514 -0.10911774 -0.012087326 -0.11352599 0.009083472 -0.062410567
0.013578463 0.052663762 -0.050816227 -0.008486849 -0.07826952 -0.06544215 0.040013433 -0.10925006
-0.0267396 0.006960025 -0.10229148 -0.018230634 -0.06317212 -0.15616983 -0.13594387 -0.041844886
-0.14459117 -0.030208852 -0.13867564 -0.039199647 -0.041017927 0.037093226 0.03592641 -0.07702169
-0.10122818 -0.013895378 -0.008960848 0.045168694 -0.0552392 0.034140524 -0.0034683102 -0.033919014
-0.089943215 0.04588181 -0.0039022444 -0.026125656 0.010732038 -0.15601994 -0.13810885 -0.05804262
-0.16410153 -0.089848846 -0.05675473 -0.13081047 -0.0918597 -0.1374803 -0.1950364 -0.14775546
-0.048049245 0.0058221756 -0.07857914 0.0025432634 0.057869315 0.017566333 -0.030398112 -0.014682835
0.029527629 0.006821859 -0.07979515 -0.016775625 -0.09790565 -0.0850048 0.006334008 -0.17566743
-0.08738622 -0.14525342 -0.0935272 -0.10899034 -0.14143786 -0.20093459 -0.28678164 -0.22385016
-0.21036299 -0.16731362 -0.27304938 -0.18491815 -0.123066954 -0.049530543 -0.1477197 -0.11112963
0.032118957 0.030801494 0.020531919 0.008700575 0.01793975 -0.075727284 -0.039023105 -0.049098644
-0.068604946 -0.13017263 -0.19709347 -0.13397767 -0.13757104 -0.15875386 -0.10042212 -0.18398589
-0.11588681 -0.124573134 -0.22437537 -0.20082119 -0.16928996 -0.25975853 -0.43076175 -0.27197352
-0.23500983 -0.27723292 -0.24241318 -0.12537186 -0.07872554 0.043571167 0.012740428 -0.10191864
0.05898061 -0.06550669 -0.007271584 -0.050241206 -0.026639834 -0.00643773 -0.18003398 -0.1579037
-0.066980116 -0.18867397 -0.11796531 -0.1157366 -0.0729158 -0.08210409 -0.13225558 -0.113132335
-0.25947964 -0.32517943 -0.33382744 -0.28970388 -0.21882954 -0.14441161 -0.13413449 -0.11057643
-0.09124955 -0.027894573 -0.07738784 -0.036088254 -0.020748 -0.029274117 -0.014140926 -0.049848847
-0.10472005 -0.0993176 -0.09979143 -0.057277806 -0.054394104 -0.07018019 -0.066085175 -0.010946615
-0.016906176 -0.053230833 -0.14269923 -0.21640691 -0.2551767 -0.21307103 -0.17015532 -0.12424147
-0.15927188 -0.016483026 -0.1021738 0.023675064 0.0560925 -0.06453621 -0.05231913 0.057966556
-0.033292253 -0.07346381 0.03588022 -0.14457951 -0.0015505471 -0.042792816 -0.123868786 -0.01850618
0.024345815 -0.07433904 -0.079708286 -0.10669151 -0.03774493 -0.20402284 -0.2478439 -0.42776367
-0.31628174 -0.28750718 -0.17791751 -0.12165442 -0.044846583 -0.07178001 0.04859239 0.052545384
-0.10180081 0.042847633 -0.04734449 -0.055722997 0.023100857 -0.045609806 -0.040325426 -0.082213596

decoder.4.weight f4 [784, 128]
00000000: acc3 113d c19c aabd 5b42 2bbe c661 87bd
00000010: 1a8d 83be 79be c0bd ee91 a6bd 82d8 71bd
00000020: 9e5a 263c b794 113d 1c89 b03d 2dc5 c0bb
00000030: e878 01be 7584 c63b b23c 8fbe 974d bdbd
00000040: 998f f33c e19c 99bc d1fb b4bd 8330 023d
00000050: 411c c53c dbcc a3bc 969c 893c 00e9 0ebd
00000060: cfe5 443d b55b 403d 0bb3 56bd bc7d a8bc
00000070: 75b7 49bd 0d7b 58bd 0828 483c e67b 233c
00000080: 73a0 d0bd b369 80bd 9856 c5bd fbca f1bd
00000090: 8fd3 76be 5e9a 413d 10f1 56bd b201 2ebd
000000a0: db6f 1e3d 8f74 04bd 5001 bebd 706d ecbb
000000b0: 9c45 97bc 3540 c0bd 0b74 b2bd 44b6 97bd
000000c0: 5952 e73c c936 003c 49d9 52be fcc4 adbd
000000d0: 123e 6ebd 70b5 afbd 2285 5abe e8eb 79bd
000000e0: 7b07 683d d1ca b8bd 0783 cbbd db6b 78ba
000000f0: 00be 11bd fdff 7dbd eab2 2dbe 82dd 02be
00000100: 5a0d 52be 66e0 aabd 49ce 01be 24b1 173d
00000110: 21e8 cbbd 3570 18bd c5cf 90bd 95c3 9cbd
00000120: adaa 28bd a449 9dbd 53d4 b7bc d0f7 9bbc
00000130: 8fa6 0d3d 4166 1c3d d02a 71bd 2377 1fbe
00000140: 1a08 85bd d950 c3bd dd95 a5bd 7c83 62bd
00000150: 4721 9fbd 427e 87bd 853b f83c ff23 90bd
00000160: 6911 adbe 8f90 85bd 53b2 9b3d 86bb f7bd
00000170: 20ed a4bc 1c9d 343d d626 7dbe e9ed ae3d
00000180: 17da c0bd b4e4 2cba 136d c23c 5092 b6bb
00000190: 10e1 523d 5fe0 183d e300 b4bd f809 30bd
000001a0: c09a cb3a 949d c1bc 856e 01bd 65b0 fdbd
000001b0: 87a2 1ebe a68a 4c3b 5cec 8dbd 3cff e8bc
000001c0: 1acd 95bd ea64 d93c eddf 443d 7b19 8fbd
000001d0: adae 54bd d4a3 bcbc f6bc a4bd 713b aabd
000001e0: ad8c 753c e710 aabd ab0d c0bc 7f6d f6bc
000001f0: bef4 843d 09fe 2b3d 74f5 79bc f35a ffbd
00000200: 18eb c6bc 1623 9a38 0b05 ffbc e5b3 df3c
00000210: 4a35 8abe fb13 673c c8a5 8fba 8401 86bc
00000220: 0e11 56bc fffb 2fbc e972 8e3c 5c94 b3bd
00000230: 8a0f 35be 5994 87bb 0796 49be f85a 19bc
00000240: 8060 bcbd 8adc 5fbb ebc7 eb3c 58df 26bd
00000250: 19d4 293d 58f7 4bbd 065e 05be 2d0d 38bb
00000260: 892a dabc d399 96bc 9528 2b3c 2c9e 0b3d
00000270: 87f8 b9bc a47d a7bd e289 c3bd 165d f2bd
00000280: d6f2 06be 1d94 7f3d db72 8d3b 25aa 003c
00000290: b796 5dbe 3609 403d 8461 34bd 0d2d 0a3d
000002a0: a89a 0abd b394 bb3c 015f 85bd 6ee3 6f3d
000002b0: 1a53 38bd d833 08bd 94f6 f2bd 4764 8a3d
000002c0: e17f 3a3d 22ef 68bd 1edf 59be 6e1f 33bc
000002d0: 036e 8f3d 57d1 a0bd e641 6abe 9d6a d4bd
000002e0: bc3a af3d a626 bebd f4e9 f7bb 2ba7 5f3c
000002f0: c723 3dbd f300 babd eb8d 72be 7c5e 8c3c
00000300: c90d 88be 07df dcbb ae64 adbd 6267 07bd
00000310: 7a41 9fbd 0d0e d9bc 1472 84bd 7263 9bbd
00000320: a8c6 61bc f64f 30bd 2d9a cabd c8f0 c53c
00000330: d024 893c e308 2b3d 3715 b9bc df4c 36be
00000340: 759a fa3b 4449 3cbb d3bd 49bd 737f 77bb
00000350: 0bac 353d 2505 f2bd a551 3bbd 7e66 a1bd
00000360: 51d3 abbe bab4 d3bd 0e31 7b3d 3772 8cbd
00000370: 509b 0b3c a2d9 533c 018e 91be aa9a 7a3d
00000380: fa88 8bbd 1b65 1a3d eed6 a23c 03af 9abd
00000390: 8d79 02bd a570 823b 969d cf3b 88c6 cabd
000003a0: e787 543c d5be 92bd 0bd1 a2bd 7a0c 7fbd
000003b0: 3437 10be a46a 9ebd 3b60 aebc db65 c3bd
000003c0: cbcd 143d fb93 acbd 8fff fdbc 422c 053d
000003d0: b1e5 713d a06e aabc f2eb c0bd f880 a1bb
000003e0: 6634 96bd 6c51 18bd 1ac8 dd3c 1ed0 dbbd
000003f0: b337 cfbc fc0b c7bd 8c0d 95bd b786 99bd
0.035586998 -0.0833068 -0.16724531 -0.06610446 -0.2569359 -0.0941133 -0.08133303 -0.05904437
0.010153441 0.035542216 0.086199015 -0.00588288 -0.12643778 0.0060582706 -0.27975994 -0.09243315
0.029731559 -0.018751564 -0.08837093 0.031784546 0.024061324 -0.019995144 0.016798299 -0.034890175
0.048070725 0.04696246 -0.052416842 -0.020567767 -0.049247224 -0.052851725 0.012216575 0.00997827
-0.10186853 -0.062701605 -0.09635657 -0.118062936 -0.2410414 0.047266357 -0.05247599 -0.042482086
0.038680892 -0.03233772 -0.09277594 -0.0072151944 -0.01846581 -0.093872465 -0.0871354 -0.07407811
0.028237509 0.007825562 -0.205907 -0.084848374 -0.058164664 -0.08579528 -0.21339849 -0.061015993
0.05664776 -0.09023059 -0.09937101 -0.0009476521 -0.03558159 -0.062011708 -0.16962782 -0.12779811
-0.20512906 -0.08343582 -0.12676348 0.03703417 -0.099563845 -0.037216384 -0.07070879 -0.07654492
-0.041178394 -0.076800615 -0.022440111 -0.019039065 0.03458267 0.038183454 -0.05887872 -0.15572791
-0.06495686 -0.09536905 -0.08085225 -0.055301175 -0.07770019 -0.06615879 0.030301819 -0.07038116
-0.33802345 -0.06521713 0.07602372 -0.12096314 -0.020132601 0.044095144 -0.24721846 0.085414715
-0.09416597 -0.0006595359 0.023733651 -0.005571641 0.051484168 0.037323352 -0.08789232 -0.042978257
0.001553379 -0.02363471 -0.03159954 -0.1238716 -0.15491687 0.003121057 -0.069298476 -0.028442018
-0.07314511 0.026537377 0.048065115 -0.06987282 -0.051924396 -0.023027338 -0.08043854 -0.08312119
0.014987153 -0.08304005 -0.023444017 -0.030081509 0.06491993 0.041990314 -0.0152562745 -0.12468519
-0.024282023 7.3498275e-05 -0.031130334 0.02730746 -0.2699378 0.014103885 -0.0010959441 -0.016358145
-0.01306559 -0.010741233 0.017388778 -0.08768532 -0.17681709 -0.0041375575 -0.19686137 -0.009360068
-0.091980934 -0.003415855 0.028781852 -0.04074034 0.041462038 -0.049796432 -0.13024148 -0.0028084025
-0.02663161 -0.018383896 0.010446687 0.03408639 -0.022701515 -0.08178261 -0.095477834 -0.11834161
-0.13178572 0.06239711 0.0043166704 0.007853066 -0.21639524 0.046883784 -0.04403831 0.03373437
-0.033838898 0.022898054 -0.06512261 0.058566503 -0.045001127 -0.033252567 -0.11863437 0.06757408
0.04553211 -0.05686868 -0.21276519 -0.010932786 0.07003405 -0.078524284 -0.22876701 -0.10371897
0.085561246 -0.09284715 -0.007565731 0.013650696 -0.046176698 -0.09082212 -0.2368695 0.017134897
-0.26573017 -0.006740454 -0.08466469 -0.033057578 -0.077761605 -0.026495958 -0.06467071 -0.07587327
-0.0137802735 -0.043045007 -0.09892688 0.024162665 0.016741186 0.041756522 -0.022593124 -0.17802761
0.0076478072 -0.0028730193 -0.049253296 -0.0037765175 0.044353526 -0.118173875 -0.04573216 -0.07880877
-0.3355966 -0.10337205 0.06132608 -0.06857722 0.008520916 0.012930306 -0.28428653 0.061182655
-0.068132356 0.037694078 0.019877877 -0.07552912 -0.0318542 0.0039807134 0.0063359244 -0.09901148
0.012971855 -0.071653046 -0.07950028 -0.062267758 -0.14083558 -0.07735184 -0.02128612 -0.09540912
0.036329072 -0.084266625 -0.031005649 0.03251291 0.05905694 -0.020804703 -0.09420003 -0.0049287044
-0.07334213 -0.037187025 0.027072955 -0.107330546 -0.025295114 -0.09719083 -0.072779745 -0.07496398

encoder.0.bias f4 [128]
00000000: 0152 3fb9 34cb 4a3e 3586 b43c 1928 36bd
00000010: 49c1 e0bc 77c5 033e 125f 2c3c 7051 063f
00000020: ac05 263d 3676 8c3c a8bc d13d c47c 0abc
00000030: 3ca6 3e3c 4d79 853e 6247 be3e 6d65 2d3e
00000040: d999 81bc d9a1 0c3f f8c6 ba3b bc32 3d3d
00000050: b7ef a53e 4d11 95bc 4b95 51bc dd60 c23c
00000060: dc66 803e 3e9a ab3e 170b 23bd 5dbf 223e
00000070: 9dd8 92bd 5cfb 903e e9f0 4c3b 6cc9 13bd
00000080: 8926 dd3d 4f4b ffbd 3a4c a53d eebe 463e
00000090: e8a6 b13e 2283 773c 68e3 563f 9804 4a3e
000000a0: 822c ecbc 6db0 f3bc 76c7 203e 996d ad3d
000000b0: c322 8b3c 8515 bf3c 757c 0dbd 78de 7a3c
000000c0: 4ee0 0dbc 42d3 323c ebda e83c 90d8 b53e
000000d0: 4bf3 973e 7e38 8fba b0d5 a93c 2a4a 21bc
000000e0: b56a d53d 77ad 03bd 89c0 1a3f 0107 d3bc
000000f0: a716 15be 4ddd 1cbd 555c d93d 8c3b 15bd
00000100: 561d f43d 92f4 b7bd 30c7 f83d f147 27bc
00000110: 458e 903c e575 ac3d 917d 0d3f b80d 0bbc
00000120: a043 883c de2a 2d3b 95d8 1a3e de8f 9c3e
00000130: 4eca 72bb 7262 d83d 7eb9 f5bd c82a 92bc
00000140: a901 003e 489f 333f 8b01 773c b0cb 273e
00000150: 8388 27bd 4b00 973c c151 133e b02c f23d
00000160: d1e9 b73e 1799 27bd 9358 213f de80 0abd
00000170: 2e37 42bb e802 ba3c 97c7 abbd 29de 23be
00000180: 6977 c33e 8264 5d3e dd08 a03c 3a7c 763e
00000190: a818 743e a5dd 8a3c 60a7 9f3e 79bf 9e3e
000001a0: 70c0 c43e 9f46 4f3b b873 4bbb 9a32 ea3d
000001b0: 9819 e73b 5685 11be 1175 a43d 74f8 33bd
000001c0: cc2e a7bd 0b39 f33e ea8b f23e dae5 bc3d
000001d0: 6761 d4bc bc57 07bd 7b11 10bc be4e 673c
000001e0: 884d 6dbb 655b 183d 0dbe e1bc dadc 5f3e
000001f0: d7ea c13e 075c e23a e003 9d3c c7fb 43be
-0.00018245728 0.19804078 0.022036651 -0.044471834 -0.027435916 0.12868296 0.010520713 0.52468014
0.040532753 0.017146211 0.102410614 -0.008452598 0.011636313 0.26069108 0.37163836 0.16933222
-0.01582043 0.5493446 0.0056999885 0.046190962 0.3240945 -0.018196726 -0.012791942 0.023727829
0.25078475 0.33516115 -0.039805498 0.15893312 -0.07170222 0.28316772 0.0031271523 -0.036080763
0.107983656 -0.12465536 0.0807118 0.19408771 0.34697652 0.015106948 0.83940744 0.19728315
-0.028829817 -0.029747212 0.15701088 0.0846817 0.01698435 0.023325691 -0.03454252 0.01531183
-0.008659435 0.010914626 0.0284247 0.35516787 0.29677805 -0.001092687 0.020731777 -0.009844342
0.104207434 -0.03214785 0.60450035 -0.025760176 -0.14559422 -0.038296986 0.10613314 -0.03643374
0.11919658 -0.08982195 0.12147367 -0.010210023 0.017645964 0.08420924 0.55269724 -0.0084871575
0.016633809 0.0026423256 0.15121682 0.30578512 -0.0037046853 0.10565652 -0.119982705 -0.017842665
0.12500633 0.7016492 0.0150760515 0.16386294 -0.040901672 0.018432757 0.14386655 0.1182493
0.35920575 -0.040917482 0.6302578 -0.033814304 -0.002963494 0.022706464 -0.08387678 -0.16002716
0.3817704 0.21620372 0.019535476 0.24070826 0.2383753 0.016951391 0.31182384 0.31005457
0.38428068 0.0031627787 -0.0031044316 0.11435433 0.0070526116 -0.1421102 0.08030141 -0.043938115
-0.08163223 0.47504458 0.4737237 0.09223528 -0.025925351 -0.033042654 -0.00879323 0.014117895
-0.0036209542 0.037196536 -0.027556444 0.21861592 0.3787448 0.0017269858 0.019166887 -0.19139014

encoder.0.weight f4 [128, 784]
00000000: 8cb1 0bbd bfaa 0d3d beff c2bc a806 9b3c
00000010: ebb5 0dbd 72c4 fa3c b83b 843c a62e 68bc
00000020: d4ad dbbb a36c 083d 9834 c03b f075 e1bc
00000030: 9076 03bd 4395 adbc 7343 e6bc b755 0c3d
00000040: 326c 08bc 900e c33b 10a8 ed3b c816 cebc
00000050: 4c7d 8ebc d759 0c3d 3b35 08bd 307e c4bc
00000060: 123f 48bc 400f 3a3c 98fa cf3c 94a4 7dbc
00000070: 003b 95b9 38c3 06bd 60ef bf3a b04a 653b
00000080: 2431 873c bc49 6b3c c07f d7ba 6825 d83b
00000090: d899 7ebc ae45 63bc 5206 e13c ae02 40bc
000000a0: 7965 0c3d 9e21 953c a829 86bb ee46 d73c
000000b0: 40e3 ccbc 0213 f43c 08ec ea3b 58ee c13b
000000c0: 0024 6dbb f424 083c a2ce eb3c 7d56 023d
000000d0: 28e2 b83c 6658 56bc b6e1 07bd 423f a23c
000000e0: 8ab9 823c f096 7f3b aa6a 07bd a6bc 44bc
000000f0: 3868 ce3c f5cb b5bc b312 d1bc 6caf debc
00000100: b0db 41bb 8e5f 983c 2e71 adbc 8e58 a4bc
00000110: eaba 21bd 4871 6fbc b0c6 efbc 583a b73b
00000120: 6397 103d b8b9 293c d5e5 113d 7594 94bc
00000130: 25dd 8ebc b8da 1dbc 6868 223c 98b2 cc3c
00000140: c027 473c 888b 993c 2ef9 3bbc 1e21 0bbd
00000150: c09d 87bb 0a50 64bc 1cf6 1dbc 4064 e1ba
00000160: 2a6b aebc b2c3 fd3c 834a 0f3d 1cbd bebc
00000170: a23a e43c 121d 6cbc f4ea c1bc ef12 eebc
00000180: 2c28 cfbc 42f6 1dbd 3bd2 ebbc c03c e43c
00000190: eafa 893a 5355 49bb 1040 cdbc c199 953c
000001a0: eb6f 8b3c 69e1 2c3c 0336 77bc 323c f33c
000001b0: 2867 a23b 5090 27bb 84e0 813c 2620 00bd
000001c0: 8195 edbc f369 0abd 1ed0 c7bc 24e2 593c
000001d0: 4eb1 6cbc f8bb bd3c 9833 eabc 1163 a8bc
000001e0: 8541 57ba 733e c2bb abed ce3b 28f9 893c
000001f0: c059 1fbd 719c 12ba 1bcf cfbb 42ba 523c
00000200: 929a e2bc 980a 06bd 899d e43c 3a75 ecbc
00000210: 4938 98bc 327c 32bc 3b93 d2bc aedd 993b
00000220: d449 c4bb 18ce a83c d8f4 bfbc ccc2 a13c
00000230: f36b fcbc 4805 ddbb cac5 e2bc 9052 5a3c
00000240: c00d ef3b aefd fe3c 5bff 003d b4b3 45bc
00000250: 6732 40bb 667c db3c 8442 4bbc 18e6 06bb
00000260: 671f b3bb 3ff0 b03c 2d16 d03b c1ac 3cbd
00000270: 4d6f 04bd 39b5 93bc bb80 743c 79db b03a
00000280: 91b9 82bb c586 f8bc 6875 20bc 00c7 dc3b
00000290: ca49 f23c 144c c3bb acc1 fdbc 4863 f6bc
000002a0: 0a9f 49bc 1ca5 873c 4efe dfbc b2e8 45bc
000002b0: 4a05 2abc 260a 24bd 1e81 15bc bff2 03bd
000002c0: 4827 d73c e9b2 1bbc 0e63 5abc 4c2f b2bc
000002d0: 7a6a 4f3c c2b6 0abd d1f9 10bd ab19 fbbb
000002e0: cfbf 2e3c 2fa7 0fbc b006 bf3c b210 0d3c
000002f0: 0145 01bd 0baf b1bc 6e56 f83b 6966 d03c
00000300: 7027 763c 303d c13b 60fc 923a 8015 0d3c
00000310: bfed 0a3d 04b4 05bc 7036 f1bb 780e 303c
00000320: 87c5 06bd 0c32 3f3c a2ea 20bd 6615 523b
00000330: d2c2 8c39 23aa f3bc 6e75 6bbc ea1c b43c
00000340: 29e6 08bc fc36 a13c 2382 13bd b411 38bc
00000350: 5cd4 91bc 9bba 8c3b 21d4 96bc ae4a 3f3c
00000360: 5ce8 5bb9 1105 ccbc 11c6 d4bb ad64 aebb
00000370: 2633 04bd 5988 0e3d 6a8a e7bc 7638 9a3c
00000380: a6c6 6bbc 8b60 033d 5e17 34bc 26dd b73b
00000390: ac75 dcbc e6ce 0ebd 6d57 c5bc 4c09 923c
000003a0: e1fa ec3b f004 c8bc a663 8f3c 1159 bf3c
000003b0: c541 79ba 5732 e7bc eb54 1cbd 0831 a9bc
000003c0: cbac 5dbb 2d6b a13c f629 9f3c fc06 52bc
000003d0: af76 20bd ccec d7bc 5978 0b3d 7c4b 30bc
000003e0: 788d 9b3b 005b 9eba 240f 5b3c 2e6d e03c
000003f0: 52fe e83c 2a7f de3c 4d95 05bc bb43 b03c
-0.03410487 0.034586664 -0.023803588 0.018924072 -0.03459732 0.03061125 0.016141757 -0.014171278
-0.0067040715 0.03330673 0.0058656447 -0.027522057 -0.032095492 -0.021189338 -0.028108334 0.03426143
-0.008326577 0.0059526637 0.0072527006 -0.025157347 -0.01739373 0.034265365 -0.03325389 -0.023985952
-0.012222068 0.011356175 0.025388047 -0.015481133 -0.00028463453 -0.03290102 0.0014643483 0.0034987144
0.016502924 0.014360841 -0.0016441271 0.006596256 -0.015539609 -0.013871593 0.027468834 -0.011719389
0.03427646 0.018204506 -0.0040943213 0.02627894 -0.025010705 0.02979422 0.0071692504 0.0059183054
-0.0036184788 0.008309592 0.028785054 0.031820763 0.022568777 -0.013082599 -0.03317424 0.019805554
0.015957613 0.0038999878 -0.033060707 -0.012007868 0.02519618 -0.02219198 -0.025521612 -0.027183257
-0.0029580407 0.018600252 -0.021172132 -0.020061757 -0.039484896 -0.014614411 -0.029269546 0.005591672
0.035300624 0.01035922 0.035619576 -0.018137196 -0.017439434 -0.009634666 0.009912588 0.024987504
0.012155473 0.018743291 -0.011472983 -0.03396713 -0.0041386783 -0.013935098 -0.009641197 -0.0017196015
-0.021291334 0.030977104 0.03498317 -0.023283534 0.02785999 -0.014411228 -0.023671605 -0.029061763
-0.02528771 -0.038564928 -0.02878677 0.027861 0.0010527049 -0.0030721023 -0.025054961 0.018261792
0.01702114 0.010551789 -0.015088561 0.02969179 0.004956145 -0.0025568195 0.015854128 -0.03128066
-0.029001953 -0.033792447 -0.02439123 0.013298545 -0.01444657 0.02316092 -0.028589055 -0.020555051
-0.00082113623 -0.0059278547 0.0063149533 0.01684244 -0.03890395 -0.00055927696 -0.0063418276 0.01286179
-0.027661595 -0.032724947 0.02790715 -0.028864492 -0.018581526 -0.010893868 -0.02570497 0.0046956157
-0.0059902463 0.020606086 -0.02343218 0.019746207 -0.030813193 -0.0067450143 -0.027682204 0.0133253485
0.0072953403 0.031126823 0.031493526 -0.01206677 -0.0029326917 0.026792716 -0.012405995 -0.0020583924
-0.00546639 0.021598933 0.0063503 -0.04606319 -0.032332707 -0.01803075 0.01492327 0.0013493142
-0.0039894064 -0.0303377 -0.009793617 0.00673759 0.029576201 -0.005959997 -0.030976139 -0.030076638
-0.012305984 0.016558222 -0.027342942 -0.012079405 -0.010377238 -0.04004874 -0.009125022 -0.032213923
0.026263848 -0.009503105 -0.013329281 -0.021751069 0.012659663 -0.033865698 -0.035394493 -0.007662972
0.010665848 -0.008767887 0.023318619 0.0086099375 -0.031559948 -0.021689912 0.0075786626 0.025439458
0.015024051 0.0058971867 0.001121413 0.008611083 0.03391814 -0.008160595 -0.007361226 0.010745637
-0.03290322 0.011669647 -0.039286263 0.0032056211 0.00026848033 -0.029744213 -0.014371259 0.021986444
-0.008355656 0.019679539 -0.03601278 -0.0112346895 -0.017801456 0.004294706 -0.018411698 0.01167552
-0.00020972028 -0.02490476 -0.006493338 -0.00532206 -0.03227534 0.034798 -0.028264243 0.01882575
-0.014390623 0.032074492 -0.010991899 0.0056110797 -0.02691158 -0.034865282 -0.02408954 0.017826699
0.0072320555 -0.024416417 0.01750357 0.0233579 -0.00095083966 -0.028222246 -0.03816692 -0.020653263
-0.0033824916 0.019704426 0.019429188 -0.012819048 -0.039175685 -0.02635803 0.03405032 -0.010760184
0.004747089 -0.0012081563 0.013370309 0.027395811 0.028441582 0.027160246 -0.008153272 0.021516671

encoder.2.bias f4 [64]
00000000: 61fb 593d f03b 9fbe 1c96 6cbd 1594 19be
00000010: b270 b8bd c6fc 023d 160b 27bd d984 2a3e
00000020: 793c 533c b816 95ba 4ef4 bc3c 995d ebbb
00000030: 8f99 15bd 844f c0bd b06b ba3e 368e d8bd
00000040: 50d4 993c fd86 5cbd 9b48 18be e5af 733e
00000050: 1d3c 003c b7a3 293d a62b 9f3d e5d6 d23e
00000060: 75cc 5d3c 8ead 203d 9eb3 083e 1c13 873d
00000070: 651c 773e 1a78 84bd ccb2 8dbd 29cb 05be
00000080: f1cc 91bd edec 1a3e e2e4 8d3d bb6a c7bd
00000090: 2c6e 06bd a10f 453c 0370 b83d 3c53 623d
000000a0: 934e c7bd 0abc 573e 9a75 53bd 98e8 eaba
000000b0: bf31 3d3e 675e 54ba 48a2 de3c f5cc f33c
000000c0: da71 5e3d 882a f33d 5922 bc3d ac10 04be
000000d0: 572c d3bd 9509 cb3d f462 053c 536f b5bd
000000e0: 8794 633d 9690 e33e cb9a a0bd 58b0 d0bc
000000f0: 2155 debd f1af e2bd 6279 363d 1b6a 503d
0.05321825 -0.31100416 -0.057760343 -0.14997895 -0.0900587 0.031979345 -0.040782057 0.1665224
0.012892836 -0.0011374569 0.023065712 -0.0071827886 -0.036523398 -0.093901664 0.36410284 -0.105739996
0.018777996 -0.053839672 -0.14871447 0.23797567 0.007826832 0.041415896 0.07771997 0.41179577
0.013537516 0.039228015 0.13349769 0.06595442 0.24131925 -0.0646822 -0.069188684 -0.1306578
-0.071191676 0.15129443 0.069284216 -0.09737154 -0.03281991 0.012027652 0.090057395 0.05525516
-0.09731784 0.21067825 -0.051625825 -0.0017922102 0.18476008 -0.0008101225 0.027176991 0.029760817
0.054307796 0.118733466 0.09186239 -0.12896985 -0.103111915 0.09913937 0.008141268 -0.08859124
0.05556157 0.44446248 -0.078420244 -0.025474712 -0.10856081 -0.110687144 0.044549353 0.05088244

encoder.2.weight f4 [64, 128]
00000000: ae1d f6bc 5702 74bc 0e93 8cbd ecd8 3bbd
00000010: f09b 8c3d 1b2a 9dbd 4542 0bbd f49c fe3c
00000020: 1631 9ebb 41b8 db3c ac79 31bd 5602 20bd
00000030: 4d1e 3a3c c7dd 1bbd f88d 21bd cdca 933d
00000040: aa80 ef3c 4908 353c 651c 38bd e5fe 20bd
00000050: 54b2 433d 4014 923d 51b4 85bc 212e 48bd
00000060: 45ac ac3c d84e a83c 804f 52bc a263 b23c
00000070: 379b 60bd 7dd1 74bc a48b 9b3d 14b9 a2bd
00000080: 1f0c 60bd 29b0 7cbd e7ab a7bd 2f64 83bd
00000090: 549d 3b3d 6f82 e5bc 5278 3bbd 89d7 89bd
000000a0: 170f 28bd 0633 9d3d b4d5 c33c 47e6 a2bd
000000b0: 8791 f93c a445 13bd ebb9 9d3d 414f 50bd
000000c0: cf52 0ebd 39d9 703d 0cca 12bd fff9 3cbd
000000d0: 6084 9dbd 3f44 4b3c 2a9e af3c e36f 853d
000000e0: 5b8e 333c 417d 8bbd 3911 7bbd dce3 e83c
000000f0: 0014 94bd 936e 2f3d a785 c3bd 9464 b3bc
00000100: e08b abbd 191a a03d d7a8 89bd 3295 ccbc
00000110: 7a1d fcbc ee38 86bd 8801 b3bd 0cfc c3bd
00000120: 0658 84bd 29f3 173d 7a95 7ebd 77a5 eabc
00000130: 702e c1bb f9de 983d 7f2b acbd a057 6bbd
00000140: e48d f23c 69bd 92bc cffa 9ebd 738c 88bd
00000150: e016 713d ea12 883d 63c1 77bd 1356 a4bd
00000160: 6619 00bd 4f6a 01bc e5db 48bd a2c3 43bd
00000170: 5ff4 aabc ea52 573d 59ba 873d 77ac 8cbc
00000180: 1f42 353d 7e85 d63c cfba b0bd ab96 18bd
00000190: 6059 b5bc 2ac3 b4bd 7379 df3a ec17 fc3c
000001a0: b0bd 8a3d d6d3 683d a8c2 933d 2b13 a2bd
000001b0: 37a3 adbc 1827 6d3d 3206 bfbd d75d a73c
000001c0: 9dcf 173d c0dc 74bd 7eeb 733d a7e7 ac3c
000001d0: 1001 1fbd 7033 cfbc b370 433d 331e 46bd
000001e0: 3ab0 393d e018 46bd 83bc 173d 66ea a7bd
000001f0: 2c66 bcbd 6f48 893c 45c7 1b3d 49a8 2b3c
00000200: 2fed 983d c718 06be 695a 743d ec45 08bd
00000210: 98df 88bd 4159 07be 27b7 d8bd 403a 27be
00000220: 3f42 563e ccbd 86bc 923b 5b3d d425 aa3c
00000230: 3ef1 2f3e 0fcd 83be 1dd9 343e a7c3 39bc
00000240: cebc 483d a411 1b3e 12d6 fdbc 8474 0b3d
00000250: 5896 2abe 6e8e c23d 1904 813d eee5 ebbb
00000260: b55d 00be 827e c43d c4e6 193e 8168 72bd
00000270: 5938 ee3d e021 bd3d 109a c43c e51f 3cbd
00000280: 40ea c13d 6f96 243e e52b a13b d508 f63c
00000290: a94b 923e 14f9 6b3e 59de 393d 8a21 0dbd
000002a0: 7f93 883d 489e b4bc 15b7 343e cd85 cc3d
000002b0: 5804 cbbc be2e cb3d 01b2 11bd 726e fc39
000002c0: 32bd 173d 0114 a73d dcf3 ac3d 4309 97bd
000002d0: 712c e5bd 6bc0 a6bd 145f b5bc bdb3 303d
000002e0: 14af 9c3d 4fbf 9e3d 03b5 b93c e8b9 66bc
000002f0: a28c 013d 8c13 993c f1e2 5f3e 39e0 9fbd
00000300: 97f4 f2bd c6ff 953e 9e20 a4bd 4db3 62bd
00000310: e045 043c 5bc7 f9bd 0ed5 c5bb a819 1abc
00000320: aedb 56bc 1480 8bbc bfec 713d 0de4 54bd
00000330: 9f24 b33d 7e17 bb3d b43a 8b3c 72ed 54bd
00000340: d080 603d 0eef 1ebe 9079 98bd ae85 b93b
00000350: eea1 11bd 311b a83d 4eeb 263e 6fec 293e
00000360: cdc2 c63d 40de 0d3c 70e1 873d 0475 debd
00000370: 11f0 af3d b59c bcbd 1324 ca3d c032 403e
00000380: 5cb7 6ebe 4816 f0bd 4e28 b2bd 49ff 0abe
00000390: e236 02be 2a07 bd39 7682 acbd 53be a23e
000003a0: bdbb 2cbe e08e 9d3b ed8c c0bc c0f0 11bc
000003b0: 3b17 293d 39d3 7d3e 6574 193e 2f83 943e
000003c0: 176d 0e3e f1f3 9ebd 9f9f 9ebe e57a 653d
000003d0: 3611 193d 7fc8 883d 88d6 d1bc 38d9 e23c
000003e0: a30e 6cbc 4e04 103d 3f61 9d3d 2063 87bc
000003f0: 9df0 9cbd fa3b 4f3d 2046 53bc d0dc bb3d
-0.03004345 -0.014893136 -0.06863986 -0.04586117 0.0686568 -0.076740466 -0.033998746 0.0310807
-0.004827629 0.026821258 -0.043328926 -0.039064728 0.011359763 -0.0380533 -0.039442033 0.072164156
0.029236156 0.011049339 -0.044948954 -0.039305586 0.04777749 0.07132769 -0.016321333 -0.048872117
0.021078238 0.020545408 -0.012836337 0.021776024 -0.054835524 -0.014942524 0.07594994 -0.07945457
-0.05469906 -0.061691437 -0.08187085 -0.06415593 0.045804337 -0.028016297 -0.045769043 -0.06730563
-0.041030016 0.076757476 0.023905613 -0.07954078 0.0304649 -0.035955086 0.07701477 -0.050856832
-0.03474694 0.05880091 -0.03583722 -0.046136852 -0.07691264 0.012406408 0.021437723 0.06515481
0.010959233 -0.06811 -0.06129572 0.028428964 -0.07230377 0.04283006 -0.095469765 -0.021898545
-0.083762884 0.07817478 -0.06721657 -0.024973486 -0.030775774 -0.06553827 -0.087405264 -0.095695585
-0.06462102 0.03709713 -0.06215427 -0.028643353 -0.0058954284 0.07464404 -0.08406734 -0.057456613
0.029608674 -0.017912583 -0.07762682 -0.066674136 0.058859706 0.066442326 -0.060487162 -0.0802423
-0.03127422 -0.007898881 -0.049037833 -0.047793992 -0.020868478 0.052569307 0.0662734 -0.017172081
0.04425251 0.0261867 -0.08629381 -0.037253063 -0.022137344 -0.08826287 0.0017049744 0.030773126
0.06774461 0.056842647 0.07214862 -0.07913812 -0.021195991 0.05789861 -0.093273535 0.020430489
0.03706323 -0.059780836 0.059550755 0.021106554 -0.038819373 -0.025293082 0.0477149 -0.048368644
0.04533408 -0.048363566 0.037045013 -0.08199005 -0.09199175 0.016758172 0.038031835 0.010477134
0.07467114 -0.1309539 0.059656534 -0.033269808 -0.06683272 -0.13217641 -0.105818085 -0.16330814
0.20923708 -0.016447924 0.053523608 0.020769991 0.1718187 -0.25742385 0.17660947 -0.011338151
0.049008183 0.15143448 -0.030985866 0.034046665 -0.16658914 0.094998226 0.0629961 -0.0071990406
-0.12535746 0.09594442 0.15029436 -0.059181694 0.11631841 0.09234977 0.023999244 -0.045928854
0.09468508 0.16073011 0.0049185627 0.030033508 0.2857335 0.23044235 0.045378063 -0.034455813
0.06668758 -0.02204813 0.17647965 0.09986458 -0.024782345 0.09921025 -0.03557015 0.00048147474
0.037045665 0.08158112 0.0844495 -0.073748134 -0.11190117 -0.081421696 -0.022140063 0.04314016
0.07650581 0.07751333 0.02266932 -0.014082409 0.03162826 0.018686078 0.21863915 -0.07806439
-0.11863058 0.29296702 -0.08014034 -0.055346776 0.0080733 -0.12196227 -0.006037361 -0.009405531
-0.013113899 -0.017028846 0.05906367 -0.0519753 0.08747219 0.0913534 0.016995765 -0.051984258
0.054810345 -0.1552088 -0.07445061 0.005661688 -0.03555482 0.08208311 0.16300699 0.16594099
0.09705124 0.008658946 0.06634796 -0.10862163 0.08590711 -0.09209577 0.09870162 0.1876936
-0.23312134 -0.11723 -0.08699094 -0.13573946 -0.12716249 0.00036054227 -0.08423321 0.3178583
-0.16868491 0.004808292 -0.023504699 -0.008907497 0.04128192 0.24787606 0.14985807 0.29006335
0.13908802 -0.07761372 -0.30981156 0.056025404 0.03736993 0.066788666 -0.025614992 0.027691469
-0.014407787 0.035160355 0.07684564 -0.016526759 -0.07663081 0.050594307 -0.012895137 0.09172976

encoder.4.bias f4 [12]
00000000: bb21 173e abe6 323e 5137 5d3e 2563 59be
00000010: 93e7 6abd b33e 223e 9c83 e13c 24b8 713e
00000020: 158d 003e 06af b1bd 9bf8 92bc 8e4d c3be
0.14758961 0.17470805 0.21603133 -0.21229227 -0.057349753 0.1584423 0.027528577 0.236054
0.12553819 -0.08675961 -0.01794081 -0.38145107
