models/mnist_ae.safetensors (safetensors, 880820 bytes, 16 tensors)

decoder.0.bias f4 [12]
00000000: 6efe 773f 1418 89be 4e63 97bd 9c94 f9be
00000010: bc11 0cbf 0cd9 933e b32a 503f 7e3a 6fbd
00000020: 2069 ca3d 1949 863f e52d 38bd 5c06 2e3f
0.96872604 -0.26776183 -0.07391988 -0.48746192 -0.5471456 0.2887653 0.81315154 -0.058405392
0.09883332 1.0491058 -0.044965643 0.67978454

decoder.0.weight f4 [12, 3]
00000000: 64ed aabd 33d7 a7be 4f74 93be e14b 133e
00000010: 123b fc3e f566 cfbe f9f9 c4be caf4 abbd
00000020: 82db 84bf 8ac3 023e 69a6 d73e 926d 1a3f
00000030: 762b 0fbf 28b9 ec3e 73e9 dfbe 7c78 35bf
00000040: 31dc f3be 9d62 b93e 2166 e73e 1a8e 193f
00000050: 4729 053f c64f 33bf 5198 d93e 0bca 983e
00000060: c1d3 6fbd 8962 50bf 363e 9cbe b1d5 973d
00000070: 0d01 413e 422b bebd 38e9 f3be 30a4 0fbf
00000080: d377 5fbc 95e1 463f d264 c13e 5ff4 63be
-0.0834606 -0.3278137 -0.28799674 0.14384414 0.49263817 -0.40508237 -0.38471964 -0.08396299
-1.0379488 0.12769905 0.42119148 0.6032344 -0.5592569 0.46235013 -0.43732795 -0.7088697
-0.4762893 0.36208048 0.45195106 0.59982455 0.5201611 -0.700436 0.4249902 0.29841647
-0.058551554 -0.8140035 -0.30516213 0.07413805 0.18848057 -0.092855945 -0.4763887 -0.56109905
-0.013639408 0.7768796 0.37772232 -0.22261189

decoder.2.bias f4 [64]
00000000: 1ce3 3e3e 829f 913e 8510 c03e 90fc 8dbe
00000010: 234a ff3e c030 813e c79c e93e ab83 ebbe
00000020: 3432 173f 2e82 743d 36d8 163f 676e f53e
00000030: 09ef 1c3f d499 3cbe fd8c 2d3d 62c6 ce3e
00000040: ab27 a0bd 3ecf 30be 076b aabd de98 343d
00000050: 2fad 003f 532c 0cbe 3ab2 bdbc 1b12 353f
00000060: 90c5 983d a714 e43e e171 713e 57b9 f63e
00000070: adf1 be3e a9e2 65be 1b0f 143e 6f46 9d3e
00000080: a329 1f3f 347a c1be 89cc 403c d4a9 d1be
00000090: 21c7 fdbd 1046 933d 1e92 1cbf c6d5 b73e
000000a0: 02fd d33d c958 993e f2ec b2be 3abb 6cbd
000000b0: 4ebf 10bf e284 643e 8bb7 babd 0f8f 833e
000000c0: 74a2 9d3e 6501 193f d457 023e 50bc b23e
000000d0: 0875 ac3e 9938 883e 6432 153e 9d92 763e
000000e0: 28a3 613e e237 91be 1d99 e93e 485b d8be
000000f0: 3a5b b7bd 0467 c23e 4af1 b73e 82e7 13bf
0.18641323 0.28442007 0.37512603 -0.27731752 0.4986125 0.25232506 0.45627424 -0.45998892
0.5906098 0.05969446 0.5892366 0.47935793 0.6130224 -0.18418056 0.042370785 0.4038573
-0.07820066 -0.17266557 -0.08321195 0.044091098 0.5026426 -0.13688783 -0.023156274 0.7073075
0.07459557 0.44547006 0.23578598 0.48188278 0.3729376 -0.22449745 0.14458887 0.307178
0.6217291 -0.37788546 0.011767515 -0.4094988 -0.123914964 0.07191098 -0.6116046 0.35905284
0.10350992 0.2995055 -0.349464 -0.05779574 -0.5654191 0.22316316 -0.09117039 0.25695083
0.30788004 0.5976775 0.12728816 0.34909296 0.33683038 0.2660568 0.14570004 0.24079366
0.22034895 -0.28362948 0.4562463 -0.42257142 -0.08952947 0.3796922 0.35926276 -0.5777513

decoder.2.weight f4 [64, 12]
00000000: 71a6 1e3e 2522 423b 6c69 a93d cde0 9fbd
00000010: c579 88be 7c34 2a3e a26a cc3d a2c8 b93d
00000020: ee4b 75bd d573 d33e 627e 48be 564c 873e
00000030: aac1 1fbc a27b 39be e89a 8c3e c4e7 ba3d
00000040: 7d2d e3bc 012c 4fbf 586f 98be f022 febe
00000050: 9c49 073f cb26 e43e 39bc debe d9bb 87be
00000060: acf7 9ebe 8801 6ebd 6e38 96bd 8434 21be
00000070: e633 07bf c9c3 463e 78b3 913e a8d8 36be
00000080: 6580 fd3e d2ad b43e c31f a3be c899 333f
00000090: 9e3e e63c c726 7a3e edef 37be 5146 86bd
000000a0: 0e44 ae3e a1b7 c5bb 5b4a 5d3e b71c 9bbe
000000b0: 2e08 b0bc fc90 a83d bebd f33e 041c 413e
000000c0: d6cc 95bc 27ab 9dbe c72b 1fbf 6274 f33e
000000d0: 898d a3be 8279 fdbc e678 0a3e 97e6 b83d
000000e0: d221 f23e a48d 20be 9b6b a83d f18f 913d
000000f0: f4f4 333f a982 5c3e bb11 043f 6020 47bf
00000100: 3f12 c73e 13d5 edbd 775b d7be 4a13 84be
00000110: 6140 d6be ca30 b43e d5ae 18be e8fc 123f
00000120: 7f2f e4bb e22d 4a3d cb5d aebe 067b 22be
00000130: 6a8c 0ebf c287 4b3f 51c4 d23d 4d0d 8abd
00000140: 5601 dfbe e8c3 f03c ec6f c93e ae7f de3e
00000150: af78 dcbe 03b3 8dbe 66f2 de3e b7d8 1cbd
00000160: ad02 a1bd 9b6f 0d3f 65ef 5b3d 2522 e13d
00000170: f965 4ebe c83a 2dbf 7c91 d3bd f576 1d3e
00000180: dc1e 103f eec0 27be 87af ae3e 28ce e93d
00000190: f5c2 e6be 38f6 82bc 73c0 753e 197c 20be
000001a0: 78fa 30be ee3b 323e 21f1 013e 0b3e 943e
000001b0: fc9c 803e ed30 e4bd fe06 07be acd9 b83e
000001c0: a0fd e2be 9b63 afbe 0902 033f aecd fcbd
000001d0: 5829 903d 9afd 08be 7fd2 b3bd ccfb 1a3e
000001e0: 204f ca3e 529d 11be 6710 1c3d 0ec8 c4be
000001f0: d4f5 733d 9fc9 ab3c 3012 81bf 37bd fbbc
00000200: 732b fabe f7ff d03d eaa4 ba3e 2199 86be
00000210: 0398 1dbc 1821 70be bf9d 943d 79d4 67be
00000220: 3c07 d93d 4157 ae3e 3a16 bdbc 49e6 e43d
00000230: 0814 a83d 1827 793e 5a34 3fbe 2a5d b23e
00000240: 68ec 9ebd a234 81bf 030c 0abf bb97 9fbe
00000250: 3bae 253e 5314 9d3e c3e7 5ebe d788 f7bc
00000260: ea47 46be 6733 ad3e 669b 77bb aa5c 4a3e
00000270: 422f dabd f895 243d dd0a b53e 1698 e9bd
00000280: 4d51 92bd de26 043d 2641 f4bd 8a3a 933e
00000290: 8e24 d0be ae46 37be e1e5 c3bd e02c 71be
000002a0: d0b0 01bf 4cc9 1bbe e933 4bbf d32c cc3e
000002b0: dddc 85be 3507 e9bd 39d4 f63e 0316 bdbd
000002c0: 9b5d f93b a42f 953d 3b7c 93bc d941 da3e
000002d0: caed 37be 8e0d 553e 92e7 5cbf acae cfbd
000002e0: 0370 e6be 185d 5539 17bb ee3e 23ec c53c
000002f0: e078 453c 5472 9dbd a938 d3be d2cb a33e
00000300: bdf6 c63d a671 91bd 56a8 97bf f164 533e
00000310: 47d6 023e e78d c43e a379 55bd e0fc 373d
00000320: db7f 8b3c 372d bf3e 434a e6be 17b3 4e3f
00000330: de1f 203d 6abe 063f 55a9 f33d 2ae8 8b3d
00000340: fd73 fa3c b8c1 9a3e 06ea cbbd 9ce4 90be
00000350: e891 2dbc 0a7e 52be ad8b d53e d29c a03e
00000360: 2a6c 3fbe 9a2e 12be 3a1e a7bd 2d34 df3c
00000370: 7902 91bd 2ba8 1e3f 6822 38be 4676 7b3e
00000380: 3b5e 603d 165a 753b 669f 263e d2e3 37bf
00000390: a5c5 eabe 9aa3 4f3f 671a bf3d cc01 4ebe
000003a0: 93c2 0d3e 70b4 96bf 99e9 bd3b b1d2 5fbe
000003b0: 87af 03bf 84b1 d23e 954c 9cbf f96b 4b3f
000003c0: 6029 423e 965e 8f3e b186 c63e cf82 84be
000003d0: 3299 adbe 71cb 0bbf e2e9 a43e 9c8d 1e3e
000003e0: 579b 3dbe 7389 583e 08a3 84bf 1eac 763e
000003f0: e38e b43e e497 87be 6c4d 203d a727 22bf
0.1549318 0.0029622403 0.08272061 -0.07806549 -0.26655403 0.16621584 0.09981276 0.09071471
-0.059886865 0.4129931 -0.19579461 0.26425427 -0.009750763 -0.18113568 0.27461934 0.09126237
-0.027731651 -0.8092652 -0.2977245 -0.4963603 0.52846694 0.44560847 -0.43502977 -0.26510504
-0.31048334 -0.05810693 -0.07334982 -0.1574269 -0.52813566 0.19410624 0.28457236 -0.17856085
0.4951202 0.35288864 -0.3186017 0.70156527 0.02810603 0.24428855 -0.17962618 -0.065563805
0.34036297 -0.006033853 0.21610396 -0.30295345 -0.021488275 0.082307786 0.476057 0.18858343
-0.01828615 -0.3079464 -0.62176174 0.4754973 -0.3194392 -0.030941729 0.13522682 0.090283565
0.47291428 -0.15679032 0.08223649 0.07107533 0.70295644 0.21534218 0.51589555 -0.77783775
0.38881108 -0.11612906 -0.4206197 -0.25795966 -0.41845992 0.35193473 -0.14910443 0.57417154
-0.00696367 0.049360164 -0.34055933 -0.15867242 -0.55683005 0.79504025 0.10291351 -0.06740818
-0.43555707 0.02939029 0.39343202 0.43456787 -0.43060824 -0.27675638 0.4354431 -0.038292613
-0.078618385 0.5524842 0.0536951 0.10992841 -0.20156087 -0.6766782 -0.10330483 0.1537741
0.5629709 -0.1638219 0.34118292 0.11416274 -0.45070615 -0.015986547 0.23999195 -0.1567234
-0.17283046 0.17405674 0.1268964 0.28953585 0.2511977 -0.11142144 -0.13186261 0.3610357
-0.44334126 -0.3425568 0.5117498 -0.12343918 0.07039136 -0.13377991 -0.08780383 0.15135115
0.39513493 -0.14220169 0.03810158 -0.3843388 0.05956061 0.020970164 -1.0083675 -0.030729873
-0.48861274 0.102050714 0.36453944 -0.26288703 -0.009618762 -0.23450124 0.0725665 -0.22639646
0.10597083 0.34050944 -0.023081888 0.11176736 0.08206946 0.2433132 -0.18672314 0.34836704
-0.07759935 -1.0094187 -0.5392458 -0.3117045 0.16179745 0.3067957 -0.21768098 -0.030216618
-0.1936337 0.3382828 -0.0037781834 0.19761911 -0.10653545 0.040182084 0.3535985 -0.11405961
-0.07144413 0.03226363 -0.119264886 0.287556 -0.4065289 -0.17898056 -0.0956533 -0.23552275
-0.5066042 -0.15213507 -0.79376084 0.39877948 -0.26145068 -0.11378328 0.48208788 -0.09232714
0.0076100356 0.07284477 -0.018003574 0.42628363 -0.17961803 0.20805952 -0.8629085 -0.10140738
-0.45007333 0.00020347943 0.46627113 0.02416045 0.012052745 -0.07687822 -0.41254166 0.3199144
0.0971503 -0.07101755 -1.1848247 0.20643975 0.12777053 0.38389513 -0.052117955 0.044918895
0.01702874 0.37339184 -0.44978532 0.8074202 0.03909289 0.526343 0.11897532 0.06831391
0.030572886 0.3022592 -0.09956746 -0.28299415 -0.010593869 -0.20555893 0.41708127 0.31369644
-0.18693605 -0.1427559 -0.08160062 0.027246559 -0.0708055 0.61975354 -0.17981875 0.24556836
0.054777365 0.0037437729 0.16271743 -0.71832 -0.45853916 0.8110901 0.09331208 -0.20117873
0.13843755 -1.1773815 0.0057956693 -0.21857716 -0.5143971 0.4115106 -1.2210871 0.7946163
0.18961096 0.2800185 0.38774636 -0.2588105 -0.3390594 -0.546073 0.32209688 0.15483707
-0.18516289 0.21146183 -1.0362253 0.24089095 0.35265264 -0.2648307 0.039136335 -0.63341755

decoder.4.bias f4 [128]
00000000: e82c 883e 6370 ba3d dfd6 613d 09b7 1e3e
00000010: ed22 59bd 3929 5c3e 889a 783e 50bd ee3c
00000020: 434e 03be 1726 853d 3408 fb3d 0553 403e
00000030: 5424 173e 6e7f 543e e5f6 303e 75be 693e
00000040: 19ac b43d 982e d33d 448f e43d 05c6 44be
00000050: 5f82 97be f9b8 21bd 2766 25bb caa7 6f3e
00000060: 1050 d23b 7a88 383e c38a 053e af01 0e3d
00000070: 6a20 393e 1735 49bc b32d 64bd 31e6 bfbd
00000080: d7af 4c3e 403d 68be 6d56 223e a5b3 803e
00000090: d021 bfbd b91c 0d3d 7b06 1f3e c162 ca3a
000000a0: 732a b9bd 7252 1a3e cfd9 5c3c 6203 043e
000000b0: 1f05 7d3d fe0f f4be e005 a33e 495b 483e
000000c0: ee93 793d bc1c 2e3e ff6e 5d3d 0fa0 4a3d
000000d0: 7b6a fa3d b08b 29bd dc49 ca3d 7422 e73d
000000e0: 8312 0a3e 181a 7c3d e8b0 72bb 05f3 4cbd
000000f0: 598a 503e 5931 653e 665e b5bc bf5a 41be
00000100: a8c0 543e 9ec6 7e3d 13ec f6bd db6d 053d
00000110: d9af 8dbd 6e39 53bc 4b0c 2c3e a5da 843e
00000120: 5e6d 193e 7a86 d9bd c46a 813c b643 423e
00000130: b1ef aabe a6c2 f83d ae7e 053e ec52 b93d
00000140: 1b26 66bd 64da 98be c922 d93d a1c1 47be
00000150: 4c42 4fbd cd55 553e 48a1 96bd fabb 233e
00000160: 35e8 ad3d 6571 d93d 66ad 393e 3ea0 c83c
00000170: f43d 313e b388 023e f407 633d ff96 783d
00000180: 550c 773c f498 113d 6abd 473e b824 8b3c
00000190: 59ca 743d 8729 8c3e a87b 903e 91fc 0cbd
000001a0: dc79 e2be 8a86 8a3e 12a8 4a3e 9cf4 423e
000001b0: 0fc2 4d3e 255f 98bd 2598 953c 12c4 4cbe
000001c0: 689b d8bc a323 9b3e 1f0a 6f3d 0076 2d3c
000001d0: e7e9 77bc 8804 973e b4d2 dcbd afe4 913e
000001e0: bb18 e6bd c24c 1d3e 3ffb b9bd e07d 21be
000001f0: 8571 6a3e c80e 473e 851f 1abf 161a 433e
0.2659676 0.09103467 0.055136558 0.1549951 -0.053011823 0.215001 0.24277699 0.029143006
-0.12822823 0.06501406 0.12257424 0.1878167 0.14759952 0.20751736 0.17281683 0.2282656
0.088218875 0.103116214 0.11160138 -0.19216163 -0.29591653 -0.039483044 -0.002523789 0.2340385
0.0064182356 0.18020812 0.13041215 0.034669574 0.18078771 -0.012280724 -0.055707645 -0.093700774
0.19988953 -0.22679615 0.15853281 0.25137058 -0.09332621 0.03445122 0.15529816 0.0015440808
-0.090413 0.15070513 0.013479664 0.12891915 0.061772462 -0.4766845 0.3184042 0.19566073
0.060932092 0.17003149 0.054060932 0.04946905 0.12227341 -0.041392982 0.09877369 0.11285868
0.13483624 0.061548322 -0.0037031714 -0.05003645 0.20365275 0.22382106 -0.02213974 -0.18882273
0.20776618 0.062201135 -0.12056746 0.03257547 -0.06918306 -0.01289211 0.16801564 0.25948063
0.14983127 -0.106213525 0.01579798 0.18971142 -0.33385995 0.12146501 0.13036606 0.09049019
-0.056188684 -0.2985412 0.10602338 -0.19507457 -0.050600335 0.20833512 -0.07354981 0.15989676
0.084915556 0.106173314 0.18132553 0.024490472 0.1730879 0.12747459 0.055427507 0.060690876
0.015078624 0.035546258 0.1950585 0.016985282 0.059763286 0.27375433 0.28219342 -0.034420554
-0.44233596 0.2705577 0.19790676 0.19038624 0.20093559 -0.074400224 0.018261025 -0.1999667
-0.026441291 0.30300626 0.05835926 0.010587215 -0.01513145 0.29495645 -0.10782376 0.28494784
-0.11235186 0.15361312 -0.090811245 -0.15770674 0.22894867 0.19439232 -0.60204345 0.1905292

decoder.4.weight f4 [128, 64]
00000000: 9b3a 043d b513 273e 1aa1 c9be 5b64 a5bd
00000010: a8dc 29be 1bd9 113d f72a 2cbf 5b7a 6fbe
00000020: 9832 e73c dd23 3f3e 4327 993e ceef 3d3d
00000030: 2668 afbe dc10 87be 6deb f9bd be9b 303e
00000040: cfcf fa3d 62ca 643e 4537 dcbc 9036 e23d
00000050: 19e2 ff3c 4094 85be 7f24 c93d c01e dcbd
00000060: c20d 04bf 90e3 0c3e 4df5 be3e 2d8b 803e
00000070: dc70 283d b14e cd3d 7d33 263d 408e d73e
00000080: 15a3 4f3d 0a5c c4bd 8aac b23d 2074 febd
00000090: 4c96 76be eb84 fa3b 876d ad3c b32f 3e3e
000000a0: f47c 66bd bb49 97be 8569 33be 8e86 973d
000000b0: 2720 38be 7833 e63d 6de7 5c3d f7b9 293e
000000c0: e9c9 243e 1106 0e3d b007 6d3e 198a 0a3e
000000d0: 6486 c33d 33d6 24bd 2e66 fa3e bca3 003e
000000e0: 5b35 f33d 2b8a b93c 5b90 ee3d f878 163b
000000f0: 06c3 88bd 486e c23b bb79 3d3e ef9a 6bbe
00000100: 7a7d a3be 7ba6 443e f3f6 aebd 536a 02bd
00000110: f295 9bbe a1a6 113e 1660 163d 0692 aebe
00000120: 5d46 87be 5d31 07be 35b5 e4bd 79d6 803e
00000130: 5c53 c93e fbfb 7f3e ecb4 81bf 2ad4 18bf
00000140: 4432 a13d 64f0 b1bd ac30 823e 23ea 6b3c
00000150: 0870 dfbe 6d50 b53e 7a38 4bbe 52e6 923e
00000160: fdfa 37be 9c43 803d ca84 103d d286 c53d
00000170: a9d2 ccbe 594a d3be 9ac0 64be b3de 5fbd
00000180: c9a4 5d3e 2532 a6bb 19a3 2bbd 6f14 833e
00000190: e734 763d fd6d 503d 41f2 5cbc 90ce fe3d
000001a0: 6ba7 0fbe 57f6 c53c 73d9 86be 3d33 673c
000001b0: e61c 5e3e e9c0 66bd e23c fabc 3d29 813e
000001c0: 901b 37bf fdca d0bd 9dfc 563e ce79 ae3d
000001d0: 55da 0abe 1fd7 0bbe 0c5b 0fbf ff89 d63c
000001e0: 7f5c 313e fefa b53c 5b95 a83e f97e d4bd
000001f0: 3001 31bd f40f 94be 1c43 313e c79e 623e
00000200: e5bf 0f3e c44a 623e 494f 323d 8e78 103e
00000210: 0211 5abd 9d11 1fbd 5ec6 dc3d aad2 1a3d
00000220: a105 7cbe 7a02 dbbe fae2 8abe badd 153e
00000230: de28 08be 56de 8b3c 9b3a 9f3d da15 223e
00000240: ea93 983d 4a8f bd3d 2c19 a93d 7681 5aba
00000250: aaae a7bd d25c 84bb e45d 34bd 051d fb3d
00000260: 54b1 85bd bb14 0cbe 5554 073e 8646 623e
00000270: 7fd7 f5bd 697f 933d f458 123e 7c71 8a3d
00000280: a0e7 bfbd 062d 363e b074 8f3c 620e 073e
00000290: 75cb 2ebc 9287 b2bd bcea a7bd 5d11 1e3e
000002a0: 5d19 bd3a 4b90 803e f0d9 98bc 3403 e2bc
000002b0: 84a4 79bc e947 073e d5a6 533d d04d 5dbd
000002c0: d7d8 29bd b314 be3c 5716 59be fd64 f53d
000002d0: 7a68 743e 478e 2f3d 09d0 b93e d78f 253d
000002e0: fde4 623b 0ce2 c43b 0a0f e9be a04a 8dbd
000002f0: d898 493d 1169 b9bd 5621 003c 26bb 01be
00000300: a782 92ba 71c4 63bd 8421 a5be 6d8d bbbd
00000310: ec3f c1bd afcf ce3e 09df 83be ec3b babe
00000320: 4455 fbbe d5f1 953e 758b 1c3d 8c54 afbc
00000330: 9279 4f3e db8a 8cbd 89ea 35be cf02 4b3c
00000340: e730 553e 88d1 973e 2fc4 973d 9dc9 9dbc
00000350: 5342 1ebe e52a 5ebd 2d85 a1bd 40ed 24bd
00000360: 36ea cebd 877a f23b eb58 5bbf 9575 cb3d
00000370: b941 6fbd 385e 283e 2618 1dbe 4094 85be
00000380: f93b a0bc 610c 6b3c a679 6d3d 7d1c a5bd
00000390: c22f 893d e8b7 24bd 2e9a 07bc fc83 ea3d
000003a0: 8e0f 2a3e 7ae4 c9bc 7a1b 02be 0e30 14be
000003b0: 5c99 0f3e 15d4 043e 417e 22bd b92c 2d3d
000003c0: b111 063e 1f46 6f3d 2be5 8ebe ffee 943d
000003d0: 772a ecbd a361 2fbd 9aea 4abe 0942 00bc
000003e0: 0399 063e 0721 b83d b26f fe3e 8834 21be
000003f0: ceaa f73d a776 2ebe 2d3f d43d 16f1 793d
0.032282453 0.16316111 -0.39380723 -0.08075782 -0.1658808 0.03560744 -0.6725306 -0.23386519
0.028222367 0.18666025 0.29912767 0.046371274 -0.34259146 -0.2638005 -0.12203107 0.17246911
0.122466676 0.22342828 -0.026881823 0.11045563 0.031235741 -0.26089668 0.09821414 -0.107480526
-0.5158349 0.13758683 0.37296525 0.25106183 0.041123256 0.10024775 0.040576447 0.42100716
0.050692637 -0.095878676 0.087243155 -0.12424493 -0.24080771 0.0076452396 0.02117039 0.18572883
-0.05627151 -0.2954844 -0.17520721 0.07398711 -0.17981015 0.11240286 0.053931642 0.16574846
0.16092648 0.034673754 0.23147464 0.13529243 0.09547117 -0.04024334 0.48906082 0.1256246
0.11875411 0.022648891 0.11648627 0.0022960287 -0.06677823 0.0059335567 0.18503468 -0.23008321
-0.3193167 0.19204132 -0.085431956 -0.03183968 -0.30387837 0.1422372 0.03671273 -0.34095782
-0.2642087 -0.13202424 -0.11167375 0.2516363 0.3932141 0.24998467 -1.0133338 -0.59698737
0.078709155 -0.08688429 0.2542776 0.014399084 -0.4364016 0.35412923 -0.19845763 0.28691345
-0.17966838 0.062628955 0.035282888 0.096448556 -0.4000447 -0.4126766 -0.22339097 -0.054655742
0.21644892 -0.0050718957 -0.04190359 0.25601527 0.060109045 0.050886143 -0.013485492 0.124417424
-0.14028709 0.024165316 -0.26337776 0.014111337 0.21690711 -0.056336317 -0.03054661 0.25226775
-0.7152643 -0.10194967 0.20994802 0.08519326 -0.1355985 -0.13656281 -0.559983 0.026188849
0.1732044 0.022214409 0.3292645 -0.103757806 -0.043214023 -0.2891842 0.17310756 0.22130881
0.14038046 0.22098833 0.043532643 0.14108488 -0.053238876 -0.038835157 0.10780023 0.03779856
-0.24611522 -0.42775327 -0.27126294 0.14635363 -0.1329684 0.017073791 0.0777485 0.15828648
0.07450087 0.09255846 0.08256754 -0.0008335331 -0.081876114 -0.0040393854 -0.044034854 0.122613944
-0.06527963 -0.13679783 0.13215764 0.22097215 -0.12003993 0.07202036 0.14291745 0.06759927
-0.09370351 0.17790613 0.017511696 0.1318908 -0.010668625 -0.08717264 -0.08199069 0.15436311
0.0014427115 0.25110087 -0.018658608 -0.027589418 -0.0152369775 0.13211025 0.051672775 -0.054029286
-0.04146656 0.02320323 -0.21199928 0.119821526 0.2386798 0.042860296 0.3629153 0.04042038
0.003462135 0.006008392 -0.45519286 -0.06898999 0.04921803 -0.09053243 0.007820448 -0.12669048
-0.0011177853 -0.055607263 -0.32252133 -0.09157834 -0.0943602 0.40392825 -0.257561 -0.36373842
-0.4908849 0.29286066 0.038218934 -0.02140262 0.20261219 -0.06862422 -0.1776525 0.012390806
0.20819436 0.29652047 0.07410466 -0.019261176 -0.15454988 -0.054240126 -0.078867294 -0.04026532
-0.10103266 0.0073998603 -0.85682553 0.09934536 -0.058412287 0.16442192 -0.15341243 -0.26089668
-0.019559847 0.014346213 0.05797734 -0.08062074 0.06698562 -0.04021445 -0.008276505 0.11450955
0.16607496 -0.024645079 -0.12705794 -0.14471456 0.14023346 0.12971528 -0.039671186 0.04227898
0.13092686 0.058416482 -0.27909216 0.072721474 -0.11531537 -0.042817723 -0.19816056 -0.007828244
0.13144307 0.089906745 0.49694592 -0.15742695 0.12093125 -0.1703745 0.10363612 0.061020933

decoder.6.bias f4 [784]
00000000: 219a d4bd 2836 b4bd cb06 99bd 9c1f a2bc
00000010: ce89 8cbc 5043 91bc 71d2 b8bc 9cc6 b7bc
00000020: e3f7 4d3d 5b8b 50bd 5d34 cabd 9163 ccbd
00000030: 3962 44bb 756c eabd 2c14 1f3c 9a21 81bd
00000040: 763c 2f3d 08e5 42bd f26d dbbd 6c26 fd3c
00000050: 973c 3dbd 1271 4abd 8844 0c3d dece 6f3c
00000060: 99e8 cdbd 19e7 b0bd 5fa0 fdbd 288e f3bc
00000070: b35e 99bc 91b7 62bd 00e9 59bd ecc3 e4bd
00000080: 90ce 54bd 1050 3fbd 5408 e03c c933 56bd
00000090: 436e b1bd ca30 0b3d c06b 95bd 2fa1 dfbd
000000a0: 9732 4b3c 1703 c4bd d417 653c 214e d33b
000000b0: 4162 443d f249 513b f646 09bd ed3e fdbd
000000c0: 3524 e93c fcbc 8cbd 158e 4f3d f971 6cbd
000000d0: aed5 23bd 5fa2 ecbc 0c44 43bc 4dc9 e4bd
000000e0: dbb6 013d ebb7 d2bd 79ad 4e3d c2cc 1abd
000000f0: 8899 e1bd 0a69 c0bd 102a a8bd 369c ccbd
00000100: 5dc2 1abd 31fe 20bb ac2d 993c b9d1 cabc
00000110: 40f0 183d 1bf5 ffbd 95f3 cabd 58a5 b0bd
00000120: aacf b1bd 4fe5 b1bd e67a 413d b9dc 3ebd
00000130: c623 a0bd 7a50 d53b d6ff 473d 07db 99bd
00000140: 460a cbbd 3ace edbd 8f8e 82bd 1bee 1abd
00000150: 715e d2bd 0e62 2d3d 0c20 ad3c 3ef3 663c
00000160: 4d0f d1bd 7ea8 cfbc 81c1 bd3c ddc9 60bc
00000170: a1ab 88bd 3055 d3bd 2683 a0bd c9b8 73bd
00000180: 3318 bfbd 7b5c 3f3a fd14 07bd 44be b3bc
00000190: 2759 97bd 6f40 d7bb 8a6e 86bd 47cc 3e3d
000001a0: 1180 3ebd 4868 75bc bef3 a7bd e401 4d3d
000001b0: 5513 b5bd ac92 a4bd 0deb 68bd 16d1 cebd
000001c0: c17b a83c bb0d 8ebd 122c f6bc 955c 8dbd
000001d0: 12a8 73bd f7e8 a5bd 405f babd f92b a3bd
000001e0: 949f 823c c6a3 0bbc 0cbd 06be 9b4a e23c
000001f0: 3457 81bd af71 57bd e171 1bbd cb2e 69bd
00000200: af73 96bd 40f5 60bc 3c09 23bd 7f70 d9bd
00000210: 6625 b0bd 4c52 cabd a932 b73c 56f1 4dbd
00000220: e2c9 c93a 79fb 9cbd cef6 ecbc d5c0 55bd
00000230: b894 41bd a396 c5bd c640 afbd 8ebc d5bd
00000240: 6101 23bc a779 fcba c82e f6bd 2fa6 8cbd
00000250: 58f2 a6bd 391b dabd fa92 74bd fe8e 04be
00000260: 754c 08be f93b 73bd 64a0 20be 1c9c ddbd
00000270: b941 fbbd 6a4e 1ebd 4b0a f0bd 4fcf adbc
00000280: 9760 f4bd cd25 83bd f6b2 76bd a964 a2bd
00000290: efbf 3f3b c97f 72bd 1ab3 72bd 26ed d03b
000002a0: f294 053d f008 c4bc 0918 90bd 3610 c83a
000002b0: 66ac 90bd 5448 75bd 1d48 07be 28f9 24be
000002c0: 6158 dfbd 2b5b 2cbe eda8 76bd 6897 6dbd
000002d0: 8486 2fbd 5d51 65bd 370f b8bd 9b53 e2bd
000002e0: 5adb 0cbe fb4f e8bd 3fe2 0ebd 0386 d5bc
000002f0: 062e c4bd 007f 78be 1c48 e7bd c74f 8ebd
00000300: 1959 77bd ddeb b4bc 29e3 15bd a076 4abd
00000310: d678 d3bd 6c1e e9bb 50c2 80bc 6679 07be
00000320: fbba f5bc 804b 36be 46f4 60be cd1f 35be
00000330: e8d0 fcbd 630c 36bb e139 3c3d 7d82 0cbe
00000340: c27a cbbd a80f c6bd 4c17 0ebe 2fdc b33c
00000350: 897d 163d 45af 6abc ce32 4bbc 0c80 13bd
00000360: 5d87 2bbd 6897 31be eee5 77be 3a16 1cbd
00000370: 739a 143b d69e 883c aafc 2e3c 6312 70bd
00000380: 3a68 4abd b322 a9bd dc2e 0cbd 9d6a 31be
00000390: 06bf 24be 1ea9 86be 3b46 84be f8af 1dbe
000003a0: b328 d0bd 85e3 99bd 952c 62bd c40a bcbd
000003b0: 556e 71bd 8bc4 31be 5781 ccbd 90e5 17bb
000003c0: fa48 12be 7777 a2bd 67b2 08bd 8069 77bd
000003d0: 303e 7fbd 0ae1 1fbe 129a 54be cd66 cfbd
000003e0: 169c 21bd 43a0 d2bc 48b9 90bd e250 273d
000003f0: ed2d ca3b d0cc e9bd 6a3f 26bc 86b6 d5bd
-0.1038096 -0.08799392 -0.07471999 -0.019790463 -0.017155554 -0.017732292 -0.022561284 -0.022433572
0.05028523 -0.05091415 -0.09873269 -0.09979928 -0.0029965772 -0.11446468 0.009709399 -0.06305237
0.04278227 -0.047581702 -0.1071433 0.03090211 -0.04620036 -0.04942424 0.034245044 0.014636723
-0.1005413 -0.086378284 -0.12384104 -0.029730871 -0.018721914 -0.055350844 -0.05320072 -0.11170182
-0.051954806 -0.046707213 0.027347721 -0.05229548 -0.08663609 0.033982076 -0.07295942 -0.10919415
0.012402198 -0.09570902 0.013982732 0.0064485227 0.047945265 0.0031934944 -0.03351494 -0.12365518
0.028459648 -0.068719834 0.05067261 -0.05772588 -0.039998703 -0.028886018 -0.011918079 -0.111712076
0.031668525 -0.10288986 0.050458405 -0.03779293 -0.11015612 -0.093950346 -0.08211148 -0.09990732
-0.037783016 -0.0024565572 0.018698536 -0.024758207 0.037338495 -0.12497922 -0.09909741 -0.08625287
-0.08682187 -0.08686315 0.047236346 -0.046597216 -0.07819323 0.0065098377 0.04882797 -0.07512479
-0.09914069 -0.116116 -0.06374847 -0.03782473 -0.102719195 0.04232984 0.021133445 0.014096079
-0.102079965 -0.025348898 0.023163559 -0.013720003 -0.066733606 -0.103189826 -0.078375146 -0.059502397
-0.093307875 0.00072998524 -0.032979 -0.021941312 -0.07390051 -0.0065689604 -0.065640524 0.046581533
-0.046508852 -0.014978476 -0.08200787 0.05005063 -0.08841578 -0.08035788 -0.056864787 -0.10098474
0.020566823 -0.06936213 -0.030050311 -0.06902424 -0.059486456 -0.08101075 -0.09100199 -0.079673715
0.015945233 -0.008522933 -0.13158053 0.027623465 -0.06315461 -0.05259865 -0.0379504 -0.05692939
-0.07346284 -0.013730347 -0.03980373 -0.1061716 -0.08600883 -0.09878978 0.022363024 -0.050278984
0.0015395249 -0.07665152 -0.02892628 -0.052185852 -0.04726097 -0.09647872 -0.085572764 -0.104363546
-0.009949059 -0.001926233 -0.120206416 -0.068676345 -0.08151692 -0.106497236 -0.05971048 -0.12945172
-0.13310416 -0.059383366 -0.15686184 -0.10820791 -0.12268395 -0.038649 -0.11720713 -0.021217017
-0.119324856 -0.06403694 -0.060229264 -0.07929356 0.0029258688 -0.059203897 -0.059252836 0.0063759265
0.03261275 -0.023930043 -0.07035834 0.001526362 -0.070641324 -0.05988343 -0.13211103 -0.1611067
-0.10905529 -0.16831653 -0.060219694 -0.05800572 -0.042852893 -0.055985797 -0.08987277 -0.11051103
-0.13755551 -0.1134338 -0.034883734 -0.026064878 -0.09579091 -0.24267197 -0.11293051 -0.0694881
-0.060387705 -0.022085125 -0.03659359 -0.049429536 -0.10325782 -0.0071142223 -0.015717655 -0.13229904
-0.029996386 -0.17802238 -0.21968183 -0.17687912 -0.12344533 -0.002777838 0.045953635 -0.13721652
-0.099355236 -0.09670955 -0.13876075 0.021955578 0.036740813 -0.014324014 -0.0124022495 -0.036010787
-0.04187714 -0.17342913 -0.24208805 -0.038107134 0.0022675067 0.016677301 0.010680357 -0.058611285
-0.049415804 -0.082585715 -0.034224376 -0.17325826 -0.16088495 -0.263009 -0.25834832 -0.15399158
-0.10164013 -0.07514099 -0.055218298 -0.09181741 -0.05894311 -0.17360131 -0.09985607 -0.0023177601
-0.14285651 -0.07932942 -0.033373263 -0.060403347 -0.062315166 -0.1561319 -0.20761898 -0.101270296
-0.039455496 -0.025711184 -0.070665896 0.04084862 0.0061700256 -0.11416018 -0.010146955 -0.10435204

decoder.6.weight f4 [784, 128]
00000000: 32cc 40bd 82cf d7be fa1e b1be d408 a1bd
00000010: 67f9 453d c52a 6cbd 0037 0dbe 5df7 513d
00000020: 0485 90be 11bb 83bd c09b 2dbd 66d2 d03c
00000030: 6d5e dfbc 5068 1cbd 5f95 88bb 8b26 be3c
00000040: 08f7 b13c a0a8 e1bd b705 09be 1979 51be
00000050: 5fbd 59be 5ff9 f6bc c4c9 28bd 8149 f0bd
00000060: 4e00 42bd b90e cfbd c540 93bb ba16 17bc
00000070: c1da 5cbd c587 d7bd d9fc cbbd 0baa 053d
00000080: fa32 98bd bb61 91be a1cc b0bd fea7 06be
00000090: fd86 bd3c 3878 89be 6af4 ed3c f07e c7bc
000000a0: d8e5 87be 0832 dfbc 5424 e4bd db4b 0cbd
000000b0: ac82 a3bd 4b04 82bb 75a5 ffbd 0fad 1fbf
000000c0: b15a 00be 51c1 2abd 0a60 4dbd 2220 823d
000000d0: e424 4bbd 1e0f e83c 98bc 323c cddf 9abd
000000e0: e05f 88be cf5d bebd fd77 bdbd 21df 97bc
000000f0: 2947 a7bd 9e47 35bc fe7c b4bd 7549 f8bd
00000100: 0ab3 13bc df71 86bc 1a85 8d3d 7d8c 9dbd
00000110: 3042 91bd 1821 4fbc 3caa c9bd ddb7 5fbe
00000120: 8f8d 19bc dc7b 89bd e157 05be f7c9 b2bd
00000130: a1a5 95bd 9334 e5bd 0f1d 58bb ab42 2dbc
00000140: efed 3b3c ca1a e2bd 441f 38bd 14fb 04be
00000150: 404c d1ba 9038 dbbd f681 76bd 5359 cebc
00000160: 319a 14be 1ee2 873c 5f98 f03c a510 72bd
00000170: a948 c1bd 6ee1 c2bc 7c77 d83c 809e ffbd
00000180: 91d3 d5bd 3b60 0dbe 0659 d1bd eca3 bd3c
00000190: 4652 683a c8a1 32bd df66 c4be eac2 7fbd
000001a0: 27db 713c c808 d0bd d92d 2d3c f10e babe
000001b0: 5883 04bd 7c83 03bd 71bf 3abe 7743 91bc
000001c0: 5e5c 4c3d 9607 a8bd 02ff 77bc 62cf 04be
000001d0: 47d1 963c 5079 97bd b7a5 00be 96d2 63bd
000001e0: 2a38 1e3d f8cf 2ebd 86d6 f8bc 4e62 953d
000001f0: b8a2 573c fe93 f0bc 85dc 9abc 3da9 8fbd
00000200: ad0d 9dbd 3e58 e6be 7c01 ebbe ce45 aebd
00000210: f165 863d 71c4 b7ba 934e 873c 7145 0abc
00000220: a0a5 6dbe aab1 bbbc c23b 5ebd ae83 2dbd
00000230: c841 debd 14ea 53bd 8681 abbc 11b7 cebd
00000240: 6590 a73c c14a 02be 79df d5bc 345e 6bbd
00000250: d1f4 03be e0f5 06be 694d 6f3c 5749 bebd
00000260: a2d2 cc3c 75bb e1bc b5c4 aebc f40b e4bc
00000270: 2938 c3bb 58ae e9bd 9067 3fbe ed92 3dbc
00000280: c71f b0bd ff18 8ebe 1b59 c0bd 75e8 e8bd
00000290: 6082 013d e7e9 61be a8bc 11bd f907 b3bd
000002a0: 722c 88be 5fe7 003d a368 e73c 9958 89bd
000002b0: 784b 62bb 66ce 0fbe 2c56 81bd 573f 34bf
000002c0: 45a0 48bd 0cb6 10be 6310 6ebd fc94 703d
000002d0: 73ff 6dbd 6949 333d 762e 553c 3a85 55bc
000002e0: 4880 b8be ce26 0fbe 40e0 0abc 0e2c cdb9
000002f0: ba9c 11be f042 abbd 5907 983d 192e 9fbd
00000300: c753 ad3b b593 65bd 6953 72bd f100 81bc
00000310: ecab c8bc 21ee 46bd 96ab 953c 22b3 a2be
00000320: bf00 f13c dbf2 24bd e274 dabd d6fa 93bd
00000330: 9b16 5f3d 61da 4fbd 04ef b0bd 7738 22bd
00000340: 8bce 50bd e729 73bd 0328 823c 8e4d 24be
00000350: 8e44 48bd 7756 13be 52d9 25bd 4a93 7fbd
00000360: b30a 853c 72dd ef3c a45a 99bd 3e56 d8bd
00000370: 02b7 83bd e8b4 d53c c09e 32bd 1387 76bd
00000380: 0801 42bd e2ee 26be ce71 4bbd 6021 533c
00000390: 939d 7b3c 3450 f8bd fa7a 7ebe ae32 6e3d
000003a0: fd06 b1bd d4fb cebd 68ca 04be 6551 fabe
000003b0: 249a 23bd 0a80 09bd 1821 2fbd 5239 7dbd
000003c0: dd1e 953a 2f35 c8bd 35fe 953d 6708 8abd
000003d0: c50e c03c 0e27 ebbc cf9b 10bd 3b65 8abd
000003e0: 31d1 9c3d bf9b 01bc d4ec 8cbd d2c8 cb3b
000003f0: 9014 a5bd 0ae2 febd 6301 a8bd 26e6 fcbc
-0.047069736 -0.42150503 -0.34593946 -0.07863012 0.04833355 -0.057657976 -0.13790512 0.051261295
-0.28226483 -0.064321645 -0.042384863 0.02549095 -0.027266705 -0.038185418 -0.004168197 0.023211738
0.021724239 -0.11018491 -0.13381086 -0.20456351 -0.21263646 -0.030148206 -0.041208044 -0.1173277
-0.04736357 -0.1011023 -0.004493805 -0.009221727 -0.053919557 -0.10523943 -0.09960336 0.03263287
-0.07431598 -0.28394875 -0.0863278 -0.13150021 0.023135656 -0.26849532 0.02904721 -0.02435252
-0.26542544 -0.027245536 -0.111397415 -0.03425203 -0.07983908 -0.003967797 -0.1248273 -0.6237344
-0.12534596 -0.041688267 -0.050140418 0.06353785 -0.04959573 0.028327521 0.010909222 -0.07562218
-0.26635647 -0.09295236 -0.092514016 -0.018539013 -0.081678696 -0.011064438 -0.08812903 -0.12123386
-0.009014854 -0.01641172 0.06910153 -0.07692812 -0.070927024 -0.0126421675 -0.09846923 -0.21847482
-0.009372129 -0.067130774 -0.13021804 -0.08729928 -0.07306982 -0.11191668 -0.0032976305 -0.010574977
0.011470302 -0.11040266 -0.044951692 -0.12986404 -0.0015968159 -0.10704148 -0.060182534 -0.025189077
-0.14511944 0.016587313 0.029369531 -0.059097905 -0.09437687 -0.023789134 0.026424162 -0.12481403
-0.10440744 -0.1380624 -0.10222058 0.023149453 0.00088623574 -0.043611318 -0.38359734 -0.062441744
0.014761723 -0.10157925 0.010570013 -0.36339524 -0.03235182 -0.032107815 -0.18237092 -0.017732365
0.049892776 -0.08204572 -0.015136482 -0.12969735 0.018410338 -0.073961854 -0.12563215 -0.055620752
0.03862778 -0.042678803 -0.03037573 0.07294141 0.013161354 -0.029367443 -0.01890398 -0.070147015
-0.07668624 -0.44989198 -0.4589957 -0.08509408 0.065624125 -0.0014020336 0.01651696 -0.008439408
-0.23207712 -0.022911865 -0.05425621 -0.042361908 -0.108523905 -0.051736906 -0.020935785 -0.10093511
0.020454595 -0.12723829 -0.026107537 -0.057462886 -0.12886359 -0.13179731 0.014605858 -0.09291332
0.025002781 -0.027555207 -0.021334032 -0.027837731 -0.0059576225 -0.114102066 -0.1869185 -0.011570674
-0.08599811 -0.27753446 -0.093919955 -0.11372463 0.031618476 -0.22061883 -0.035580307 -0.08741755
-0.2659641 0.031470653 0.028248137 -0.06706352 -0.0034529846 -0.14043579 -0.06315264 -0.7040915
-0.04898097 -0.14131945 -0.058121096 0.058735833 -0.058104943 0.04377118 0.013011565 -0.013032252
-0.3603537 -0.13979647 -0.008476317 -0.0003913347 -0.14219943 -0.08362377 0.074232765 -0.07772464
0.005289528 -0.056049068 -0.059161577 -0.01574752 -0.024496041 -0.04856694 0.018270295 -0.31777292
0.029419301 -0.040270668 -0.10666825 -0.072255775 0.054464918 -0.05074537 -0.086393386 -0.03960463
-0.050978225 -0.059366133 0.01588822 -0.1604521 -0.048893504 -0.14388452 -0.040490456 -0.062396325
0.016240453 0.029280398 -0.074879915 -0.105633244 -0.0643139 0.02608724 -0.043608427 -0.06018741
-0.047364265 -0.16302064 -0.04966908 0.012886375 0.015357393 -0.121246725 -0.248516 0.0581538
-0.08643911 -0.10106626 -0.12967837 -0.48890224 -0.03994192 -0.033569373 -0.04275617 -0.061822243
0.0011376996 -0.09775769 0.07323877 -0.06739884 0.023444543 -0.028705146 -0.03530484 -0.067575894
0.076570876 -0.007910668 -0.06881109 0.006219008 -0.080605626 -0.12445457 -0.082033895 -0.030871462

encoder.0.bias f4 [128]
00000000: 0772 583e ae6f 8f3e 22a8 263f 4521 4b3c
00000010: f8aa 903e 69c7 9c3e 4351 ae3e 4777 1fbe
00000020: 805e d63e 6103 9a3e 0d83 6e3e 03ce 163e
00000030: ecb1 f43e 68c1 45bb 86a3 023e 6c3b febc
00000040: db7b c3be 456d 563d b2af 093f 42e7 12bd
00000050: 9bd4 293c 7bea 4c3f ebc4 bd3e a540 9c3e
00000060: 8572 8ebb 255a 2a3f 079e 963c 6b36 e73e
00000070: 4594 cf3e 833a 3a3f 730c a83e 980a 253e
00000080: 2261 a83b 2ccd f13e d3ca 00bd b046 823e
00000090: 0a52 b4bc 20b4 d53c 9e4a adbc 95f1 46bc
000000a0: 2e61 d93e 3349 35bd 63c8 293c fc18 15bd
000000b0: 9855 3a3e 2433 b93d 28ac bf3e 696e 9a3e
000000c0: ca4c babd 4064 ce3c 99f9 fdbd 4eeb 1cbc
000000d0: 17d3 343e 1e87 a63b 3cc6 dcbd 5e7f eb3e
000000e0: a28f 5c3c 19b1 3cbb 6655 1ebe 8a62 bcbc
000000f0: 0477 bc3e 82cb fe3e a903 05bd 7c97 453f
00000100: 1323 b93e 0826 8c3c 5f70 253e 2b94 be3e
00000110: 6894 16be d093 883c 5eb4 9a3e 0f8c 91bc
00000120: 16da 7bbc 4c85 923e e904 963e 96bb 18bd
00000130: 690b 443e 9eeb ec3e 4aca aa3e b092 2b3e
00000140: ee43 1fba f307 b53a 582b c33e 303e 49bd
00000150: 164c 1c3f 8127 cb3e 0a8e 253e 9aa2 6b3e
00000160: 9ec3 00be b701 2e3c 3f38 963e 1232 d5bc
00000170: 0de4 633e 2c09 063f 425d 353a 8696 313e
00000180: 0231 e03e 7d0d 603f 9032 3c3f f51a 8ebc
00000190: 38e8 973e 6baa 07bd 85d2 e03e 03f6 27bd
000001a0: a816 7a3d 2679 413e a141 febb bb05 a0bc
000001b0: cd9e d53e e76a 16bd b348 fabc bbac 333f
000001c0: 043c 93bb 3cfc be3e 127d 313e 8b49 163f
000001d0: da51 7f3e e651 9b3e 9542 9a3d 9fd2 363e
000001e0: 6bd5 e7bc 4e56 bfbc 06c8 963e 9fe7 133e
000001f0: 18ed ce3e 327f af3c 5c05 06be 716b d03e
0.21137248 0.28014892 0.651003 0.012398069 0.2825544 0.30620888 0.34046373 -0.15572844
0.41868973 0.30080703 0.2329218 0.14727025 0.47791994 -0.0030175094 0.12757692 -0.031034194
-0.38180432 0.0523503 0.53783715 -0.035865076 0.0103656305 0.8004529 0.370643 0.3051807
-0.004347148 0.665438 0.0183859 0.45158705 0.40542808 0.7274553 0.32821998 0.16117322
0.0051385323 0.47226846 -0.03144343 0.25444555 -0.022011776 0.026086867 -0.021153744 -0.012142559
0.42456955 -0.04425926 0.010362717 -0.03640078 0.18196714 0.090429574 0.37436032 0.3016236
-0.090966776 0.025194287 -0.124011226 -0.009577585 0.1765865 0.005082025 -0.10779998 0.4599561
0.013461979 -0.0028792082 -0.15462264 -0.022996206 0.36809552 0.4976464 -0.032474194 0.7718427
0.36159572 0.017107978 0.16156147 0.37222418 -0.1470505 0.016672045 0.30215734 -0.01776698
-0.01537182 0.28617322 0.2930062 -0.03728827 0.19144978 0.46273512 0.3335746 0.16755176
-0.0006075491 0.0013811573 0.38119006 -0.049131572 0.610536 0.39678577 0.16167465 0.23011246
-0.12574622 0.010620526 0.29339787 -0.026024852 0.22254963 0.52357745 0.00069184985 0.17342576
0.4378739 0.8752058 0.7351465 -0.017346838 0.29669356 -0.033121508 0.43910614 -0.0410061
0.061056763 0.1889387 -0.0077592884 -0.019533983 0.41722718 -0.036723044 -0.030552244 0.7018544
-0.0044932384 0.37301815 0.17332867 0.5870597 0.24933568 0.3033592 0.07532231 0.17853783
-0.028300008 -0.023356583 0.2944948 0.14443825 0.40415263 0.021422956 -0.13087982 0.4070697

encoder.0.weight f4 [128, 784]
00000000: 0437 02bd 0a94 91bc 389c efbb 1857 cc3c
00000010: 0e3e d93c 98ae e2bc 4c65 a43c e8a3 d23c
00000020: c067 0dba 4896 bdbb 0053 f139 8acd 32bc
00000030: ee46 393d be23 9a3d 16ca 083c 006d bbbb
00000040: 9830 4a3c f892 993b 648d 123c dc20 c3bb
00000050: 8afc bd3c a0d5 613b fff4 013d 00f8 4f3a
00000060: 7ebc f83c 609e cabc e03e 3f3b b82d 033c
00000070: 249d 0fbd 4f74 0a3d 0044 67b8 5c2a d93c
00000080: e467 0d3d e1e7 d7bc 5539 093c 644d d5bc
00000090: cd90 d03d 90fd 073e 89aa 2a3e 6dd2 f23c
000000a0: 1fb7 71bd 3cba 5dbd 3190 2fbe 50c7 bb3d
000000b0: 0bc6 623e 7d3e 2d3e 3bcd 713e 8ce1 413e
000000c0: 71c0 403e 94fa 1d3e d531 3b3e 13e4 283d
000000d0: 005e c8b8 ce23 823c 20a6 c1ba 8e5c c4bc
000000e0: 1a1b 9cbc 684c 023c 2cc8 b43d 51b8 753d
000000f0: 0ffe f53d 5e93 cdbd 40b4 963c 18cd cc3d
00000100: d4a9 d3bc bc6b a6bc fa58 e63d 98c0 02bd
00000110: 16d2 0e3d ae8d ff3d 147e 393e c539 933d
00000120: cb52 7d3d 1df2 843d 57f4 a83c 106c 833c
00000130: 9949 5cbd 5439 103e 25e5 173e 9468 653e
00000140: 2d96 e33d 345e 0a3d 40cc d83a f0bd a83b
00000150: ea26 b33c 60fa afbc b494 be3c 29fa a93d
00000160: 9b51 5b3e 2799 b93d 926c 2abd ef6a 9a3d
00000170: d903 2a3e dc1f 60bd b2f5 c4bc a87c f33d
00000180: 15b8 e43d 648d 3f3e e9e2 9d3e 91f4 7d3e
00000190: 5c23 143e 8a70 273d 47f6 81bc cd54 bebd
000001a0: 80ea d63c cfcf f13c 83b0 75bd 1064 e9bd
000001b0: b369 7f3c 5ac2 113e df8d 733c 29c7 003d
000001c0: 6acf 19bc ec0e fc3d 1639 ddbc 3d44 413d
000001d0: caa9 2c3d ed6a c6bd cbfd cf3d 1fa0 053e
000001e0: 00c0 603d 5724 8ebd 7c86 80bd ed59 183d
000001f0: f174 ea3c 04c5 893d 91eb 2bbc 5719 403d
00000200: eb0b c73b bf9a fcbc 419b 68bc 9e44 983c
00000210: 8de3 f7bc 3a1e b13c 4868 d03c 46d5 aa3c
00000220: 7be3 de3d 5f02 40bd f436 2bbe 57fb 403d
00000230: 065b e93c 02df a93c ba19 563c f988 9f3d
00000240: 6cdd 793d 9cb5 46bc 7837 e43c 342f b6bc
00000250: 566a 79bd 492d bdbd cfa9 b8bd 23e2 67bc
00000260: 12aa 303d 149e 8a3d 9724 2d3d b6e4 683d
00000270: a966 9e3c f01c 3b3b e9a5 643d bbd4 a93d
00000280: 824a 83bd 18df efbd e21d 0cbc f4a0 e53c
00000290: 8633 fabd 2946 07be 3680 13be 942b 1bbd
000002a0: b80b 9abb f6de 013d cca8 0bbd 6baa 02be
000002b0: c7d2 453c 4bb9 80bd 061f 6ebb 2723 0abd
000002c0: 399c 45be f221 d0bd b771 cfbd 6749 ffb9
000002d0: ddcb 1c3c b089 2c3d 8582 903d d262 5b3d
000002e0: 9d43 14bd 87b1 a23c 5d22 083d 097f 5bbd
000002f0: 45d2 26be 46b8 3dbe ca4a 37be b14a e1bd
00000300: 3a41 96be 9bff 93be e8f5 2ebe ff4d fbbd
00000310: 71b1 703c 4d1f 98bc 7e2b 3cbd 7ac7 c7bd
00000320: 782d c3ba 7e43 473c 91f4 e5bd ca31 05be
00000330: 8372 10be 9812 99bc ed22 af3c b3f6 6a3d
00000340: 07fc 293d e3ba 133d 8f3b 943d 2a2f ddbc
00000350: a826 d4bd 84df 3c3d aae3 6b3d 6efa 48ba
00000360: 6766 1cbe afd2 e1bd bfe9 c2bd 7adb 19be
00000370: 96ee 4abe 9758 74be 0dca c0bd 1574 f73a
00000380: a6d1 2cbd 4a8d 3d3d dc59 4cbe 5fc5 a1bd
00000390: 1835 99bd d4b1 b4bd 939d f2bd 6825 61ba
000003a0: 73bd 29bd b8c8 823d 4d37 fe3d 5ec0 ea3d
000003b0: afe9 313d 9432 913d 38c1 adbb 1af8 f6bd
000003c0: 3d8b 6cbd 7595 8f3d 0b75 293d 0068 99bd
000003d0: 50a7 94bd 79f8 bfbd 86e7 9dbd d2dc 33be
000003e0: bb49 8bbe f18f 09be e73b 5bbd e528 62bd
000003f0: 833f 463d 7249 ddbc 4475 88be 4e89 c83c
-0.03179075 -0.017770786 -0.007312324 0.024943873 0.026518848 -0.027671143 0.020067833 0.025712922
-0.0005394183 -0.005785737 0.00046028942 -0.010913262 0.04523366 0.075263485 0.008348962 -0.005719781
0.012340687 0.0046867095 0.008944843 -0.005954845 0.02319171 0.0034459606 0.031727787 0.0007933378
0.030363318 -0.024733722 0.0029181764 0.008006506 -0.03506197 0.033802327 -5.513802e-05 0.026509456
0.034522906 -0.026355686 0.008375485 -0.02603788 0.101838686 0.1328032 0.16666616 0.029641354
-0.05901253 -0.054132685 -0.17144848 0.09168875 0.2214586 0.16918369 0.23613445 0.18933696
0.1882341 0.15427619 0.18280728 0.041233134 -9.554252e-05 0.015886214 -0.001477424 -0.023969915
-0.019055892 0.007952787 0.08827242 0.05999023 0.120113485 -0.10037874 0.018396497 0.10000056
-0.025837816 -0.020315044 0.1124744 -0.031921953 0.034868322 0.12478195 0.18114501 0.07188753
0.061846536 0.06491492 0.020624323 0.01604274 -0.053781126 0.14084369 0.14833505 0.22403175
0.11112628 0.033781245 0.0016540363 0.0051495954 0.021869142 -0.021481693 0.023264267 0.082996674
0.21417849 0.090624146 -0.041607447 0.07539927 0.1660303 -0.054717883 -0.024042938 0.11889011
0.11167923 0.1870628 0.3083718 0.24800326 0.14466614 0.04087881 -0.015864505 -0.09293518
0.026234865 0.029518036 -0.059982788 -0.113960385 0.0155891655 0.14234295 0.014865368 0.031439934
-0.00938783 0.123075336 -0.02700476 0.047184218 0.04215411 -0.09688363 0.10155829 0.13049363
0.054870605 -0.06940525 -0.06275651 0.037195135 0.028620215 0.06727031 -0.010493175 0.046899166
0.006074419 -0.030835507 -0.014197172 0.018587407 -0.030259872 0.021620858 0.02544035 0.02085365
0.10883232 -0.04687726 -0.16720182 0.047114696 0.028485786 0.020736221 0.013067657 0.07789797
0.06100218 -0.01212826 0.02785848 -0.022239305 -0.060892425 -0.09237153 -0.090167634 -0.014153036
0.04313094 0.06768432 0.042271223 0.05685874 0.019336062 0.0028551184 0.055822287 0.08292528
-0.064106956 -0.11712474 -0.0085520465 0.02803085 -0.122168586 -0.13210358 -0.14404377 -0.037883356
-0.004701104 0.031706773 -0.034096524 -0.12760322 0.012074179 -0.06285342 -0.003633441 -0.03372493
-0.19297875 -0.101627246 -0.10129111 -0.0004869208 0.009570089 0.042123497 0.070561446 0.05356104
-0.036197294 0.019860042 0.033235896 -0.053587947 -0.16291149 -0.18527326 -0.17899624 -0.110005744
-0.2934664 -0.2890595 -0.17085993 -0.12270736 0.014690743 -0.018569613 -0.045939915 -0.09754844
-0.001489087 0.0121620875 -0.11228288 -0.13007274 -0.14106183 -0.018685624 0.021378959 0.057364177
0.041500118 0.0360669 0.072379224 -0.027000029 -0.103589356 0.0461116 0.057590164 -0.00076667115
-0.15273438 -0.11026513 -0.0951724 -0.1502513 -0.19817576 -0.2386192 -0.09413538 0.00188792
-0.042192124 0.046277322 -0.19956154 -0.07898974 -0.0748083 -0.088229805 -0.11846461 -0.0008588643
-0.04144044 0.0638594 0.124128915 0.114624724 0.04343575 0.07089725 -0.0053025745 -0.1205904
-0.057749975 0.070109285 0.041371386 -0.074905396 -0.07258475 -0.09373564 -0.07710175 -0.17564705
-0.2720469 -0.13433816 -0.053523924 -0.05521478 0.048400413 -0.02701256 -0.26651967 0.024479534

encoder.2.bias f4 [64]
00000000: d1d9 8b3e 4ccb 9cbc 28d2 68bd 7e7f 303e
00000010: 5846 023f a9c7 7f3e c3f7 7a3e 73a5 c6bd
00000020: 23a4 e7bd 6826 cebd 0d7a d93e 38c3 b03e
00000030: dd5d 6dbe 9465 18bd 789d 7bbd cc95 a03e
00000040: 9c91 a3bd 24e8 babd 56af c53e f73b 993e
00000050: 2fb2 ed3c dcd0 1c3e 3730 9a3e 1b11 603e
00000060: 171d c7bc 7c42 e9bc b1e2 4f3e 58bb febd
00000070: 5bfa 1e3d 03f4 983d a6a4 21bd 0674 dc3e
00000080: 8cb5 cebc d70a 5b3e 0011 2e3e 7241 3f3e
00000090: 0af8 b53d 806c a83d 2c9c 753c 8f41 edbd
000000a0: f1d8 1f3d 3c01 28bd 55d6 ab3e 2a90 6d3d
000000b0: 42e7 14bd a85d dc3d 6ecd 0fbd d8b2 0f3f
000000c0: 28db c43e fe4f f63e 1456 50bd f632 2a3e
000000d0: 1064 2abd 4273 033e d870 84bd ff9b af3e
000000e0: e563 963e 9b19 f3bd 2aeb fbbd d87d 0cbd
000000f0: 331c 0bbe 75c4 31bd d9ca c3bc 4bc7 6dbc
0.27314618 -0.019139908 -0.056841046 0.17236134 0.50888586 0.24978508 0.24508576 -0.09699526
-0.113106035 -0.10065919 0.4247593 0.3452394 -0.23180337 -0.037206247 -0.06142947 0.31364286
-0.07986757 -0.091263086 0.38610333 0.29928562 0.029015629 0.15314049 0.3011491 0.21881525
-0.024305863 -0.028474085 0.2030132 -0.12438077 0.038812976 0.074684165 -0.03946366 0.4305727
-0.025233053 0.21390854 0.16998672 0.18677309 0.088852 0.0822382 0.014990848 -0.1158477
0.03902525 -0.041016802 0.3356196 0.057998814 -0.036353357 0.10760051 -0.035108022 0.5613227
0.38448453 0.48107904 -0.05086334 0.16621003 -0.041599333 0.12836936 -0.06466836 0.34298703
0.29373088 -0.11870118 -0.12300713 -0.0342997 -0.13584976 -0.043400247 -0.023900436 -0.014512847

encoder.2.weight f4 [64, 128]
00000000: f38d 173e 7309 68bd 3f7e d93d 2c78 80bd
00000010: 7ec0 293e 0bc2 2dbe 75fe 0a3e 69d1 923d
00000020: cca7 3c3e d5fb f53d 453e f23e f890 433d
00000030: c894 5f3e 2d2c 22bd 3baf 893d deb7 6e3d
00000040: 709a a3bf d20d 863d 416a 033e c29d 66bc
00000050: 8cf8 9ebc 0bd9 de3d 6cbc 8c3e d609 c43d
00000060: 53f5 33bd b655 d23d 35dc acbd bc8d 97bd
00000070: 7669 c8bd a422 9f3c e987 1f3e 3357 053d
00000080: ce8e 133d 613e 613e a3fe 4c3e cc40 c73d
00000090: b83e 833d d911 8d3d 8e5f 2b3d 2797 cd3c
000000a0: 65c1 8cbd db5c aabd de1d ffbc c9c8 9e3c
000000b0: eb8d 123e 137d 7e3e ccb4 c53d 7762 cc3c
000000c0: e9bc 2fbd bf71 f73c 2dac e8bd d18c 373d
000000d0: bfd5 783e 4287 a53c 0778 033f 6fdd 903e
000000e0: 907e 34bd ab4f 72bc 859f 9b3c 0fb7 9dbd
000000f0: c1d9 533e f1fb 033e 2443 da3c efe9 6d3c
00000100: fe97 72bd d100 c43c c8f0 10bf c253 9e3d
00000110: 5613 85bd 66e9 b9b8 b55d 2cbc 88f5 393d
00000120: 5943 503c 2920 84bf 9bc3 e23d 9934 2d3d
00000130: b6be 2fbf 87a8 923d e045 143e 454c 393e
00000140: d1a2 1d3c 17e2 0ebd 576a 513e beff a63d
00000150: 72e2 323e 5ee1 94be 22b9 813d fefc a33e
00000160: 450c 93be b162 c53d e76e 7e3d 3fdd 39bc
00000170: da9e 2b3e 3145 933e be07 983d 069f 743e
00000180: 564d 61bb 0e50 92be b334 cbbd 9520 0f3d
00000190: 09ed 5e3d 95f7 8b3d 2ca4 ad3c 144d 623d
000001a0: c4f7 153e 7d1e 993e 1b98 8b3d 40e7 5dbd
000001b0: 1c10 8bbe 0932 933c b1ae a33b 09d9 c33c
000001c0: 21cb a4bd 5265 f4bf bc50 163d f896 a13d
000001d0: 428c 523d 6a10 9f3d ef34 78bc 8a90 d43d
000001e0: 0f70 293d 0c63 ac3d 62d9 1d3e 229c 3d3c
000001f0: 649e c3bc e0df 6fbd d537 9f3d 6f0e abbf
00000200: fc23 65bd 5e4a 4f3c a976 f3bd ea46 b4bc
00000210: b69a 073b 0b5e 86bd 73f7 46bd 432b 00be
00000220: 55d4 e93c d16f 233d 245c 29bd 85e5 55bd
00000230: 3094 653c 00b6 9b3c dd78 b3bd 53f6 95bd
00000240: dc41 963c f31e 2e3d 78a8 fdbd a5f7 113d
00000250: 71c9 57bc 5bf8 803b 97d0 88bd 0e0d b6bd
00000260: 29c4 4d3d 47bd 573c 6a7c a8bc e47b 203c
00000270: 751f fcbd 5f83 293d c470 b6bb 8dac 2dbd
00000280: 6bfb 1ebd f842 9cbd 3df7 ebbc a254 d3ba
00000290: 6c68 b9bd f9e1 193d 58d5 4cbd 8ed8 933d
000002a0: b65b 9dbd b52e babd f70f a33c f6e8 693d
000002b0: 9538 a7bd 4ed2 b93c f189 bbbb 7630 89bb
000002c0: 6fd5 48bb c1cd 21bd e609 703c f5c9 033b
000002d0: adbd 59bd c8fa 6ebd 69ca 24bd 813d 20bd
000002e0: 6abb ae3d e3ef 683d aa10 6fbd 21b9 f9bc
000002f0: 506a d0bd 194a ecbd 2c4f 84bd 4ab8 bdbd
00000300: 3f07 a1bd 3865 653d c294 74bd 3780 c5bd
00000310: 95dd 8e3c dd8b ab3c 3729 473b 5a91 673d
00000320: 047e 91bb adb4 213d eff6 a7bc 5f0e 25bd
00000330: 19a4 94bd bf47 99bc 0144 b53d bd2a 123d
00000340: 35b3 3fbd 29c2 393d e29f 09bc 1857 a23d
00000350: b3cd a4bc 90e8 7c3d b685 0fbd e0ee d8bd
00000360: ae10 893c 121b ffbd 7baa 0e3c 225f 0abd
00000370: 6a85 813c 357e 243d 2505 0a3d 869d 563d
00000380: 93d9 153d 2ef6 64bd 405e 26bd c307 b6bd
00000390: 64ea 0b3b 01c7 853a c3ec adbd 0c8a 243d
000003a0: 5691 4fbd 48b5 c13d f956 51bc df03 89bd
000003b0: 4810 07bd a9e8 99bc 93a2 923d bb11 b8bd
000003c0: 0d13 a0bd 2961 2e3c c9dd 0ebc 252b 2f3d
000003d0: d6c7 d2bd aa60 c3bc 49b0 f0bc 14c4 42bc
000003e0: 5d85 ddbb c823 f2bc 811c 53bd 7b84 9bbd
000003f0: 822a 4e3c b9d6 933c 7fd3 f8bd 6010 923d
0.14800243 -0.056649636 0.10619783 -0.06272921 0.16577336 -0.16968553 0.1357363 0.07168848
0.18423384 0.12010924 0.47313133 0.047745675 0.218341 -0.03959291 0.06722876 0.05828082
-1.2781506 0.06545605 0.12833501 -0.014075698 -0.019405626 0.108812414 0.27487504 0.095721886
-0.04393513 0.10270254 -0.08440439 -0.074000806 -0.0978574 0.019425698 0.1557919 0.032553863
0.03602486 0.21996452 0.20019011 0.09729156 0.06408447 0.0688817 0.041839175 0.02509649
-0.068728246 -0.08318492 -0.031142171 0.019382851 0.1431195 0.248524 0.09653625 0.024949295
-0.04290477 0.030205606 -0.11360965 0.044812027 0.24300288 0.020206098 0.5135502 0.2829394
-0.044066012 -0.014789502 0.018996963 -0.07700931 0.20688535 0.12889077 0.026643343 0.014521106
-0.059226982 0.02392617 -0.56617403 0.07730819 -0.06497829 -8.864961e-05 -0.010520388 0.045400172
0.012711369 -1.0322315 0.11072465 0.04228649 -0.68650377 0.0716105 0.1447978 0.18095501
0.009621338 -0.034883585 0.20450722 0.08154248 0.17469195 -0.29078192 0.063341394 0.32028955
-0.28720298 0.096379645 0.062117483 -0.011344253 0.16759816 0.28763726 0.07423352 0.23888788
-0.0034378371 -0.28576702 -0.09922161 0.034943182 0.054425273 0.06834332 0.021196447 0.05524929
0.14645296 0.29906073 0.06816121 -0.054175615 -0.27160728 0.017968195 0.00499519 0.023907201
-0.08046556 -1.909342 0.036698088 0.07890123 0.05140329 0.077668026 -0.015149339 0.10379131
0.041366633 0.08417329 0.15414956 0.0115728695 -0.023879237 -0.058563113 0.07774321 -1.336378
-0.05594252 0.012652008 -0.11887867 -0.02200647 0.002069158 -0.06560906 -0.04857583 -0.12516503
0.02854363 0.03990156 -0.041347638 -0.05222084 0.014012381 0.019007683 -0.08763287 -0.07322373
0.018341951 0.042509984 -0.123856485 0.035636563 -0.013170586 0.0039358563 -0.0668041 -0.08889209
0.0502359 0.013167686 -0.020567138 0.009795163 -0.123106875 0.04138505 -0.005567642 -0.042400885
-0.03881399 -0.07629961 -0.028804416 -0.0016123245 -0.0905312 0.03756902 -0.050008148 0.07219039
-0.07683508 -0.0909094 0.019905074 0.057106934 -0.08165089 0.022683289 -0.005723231 -0.004186685
-0.0030644794 -0.039502863 0.0146507975 0.002010939 -0.053159405 -0.058344632 -0.040232096 -0.039121155
0.0853184 0.0568694 -0.0583655 -0.030483784 -0.101765275 -0.115375705 -0.06460413 -0.09263666
-0.0786271 0.056004733 -0.05971218 -0.09643596 0.017439643 0.020940715 0.0030389556 0.056535102
-0.004440071 0.039478946 -0.02050349 -0.04029691 -0.07257862 -0.018710969 0.08850861 0.03568529
-0.046801765 0.04535118 -0.008399935 0.07926768 -0.020117616 0.061745226 -0.035039626 -0.10592437
0.016731586 -0.12456335 0.008707638 -0.033782132 0.015810687 0.040159423 0.033696312 0.05239632
0.036584448 -0.055898838 -0.040617228 -0.08888199 0.0021349424 0.0010206403 -0.08492424 0.040170714
-0.050675713 0.09458405 -0.012777084 -0.066901915 -0.03297451 -0.018787699 0.07159915 -0.08987757
-0.07816134 0.010643282 -0.00871987 0.042765755 -0.10292022 -0.023849804 -0.029380934 -0.011887569
-0.006760283 -0.029558077 -0.051540855 -0.07593628 0.012583377 0.018046724 -0.12149715 0.071320295

encoder.4.bias f4 [12]
00000000: 6846 323d d496 b13e 675a a93d 0302 04be
00000010: 14d4 303e 638d a23c 1ea1 a23c ff21 99bd
00000020: b80c 683d cd62 9b3d 7e30 06bd 426e 483d
0.043524176 0.34685385 0.08269196 -0.12891392 0.17268401 0.019842809 0.019852217 -0.07477187
0.056652755 0.07587204 -0.03276109 0.048933275
