models/square_3d.safetensors (safetensors, 1032 bytes, 11 tensors)

fc1.bias f4 [3]
00000000: 58de 2fbf bd11 8fbf 871e a0bc
-0.68698645 -1.1177288 -0.019545807

fc1.weight f4 [3, 1]
00000000: 139d 2a3f f16e 15bf 5b43 29bf
0.66645926 -0.5837241 -0.661184

fc11.bias f4 [3]
00000000: e7b7 d1bf 2496 c13f 9dd0 b23d
-1.6384248 1.5123944 0.08731196

fc11.weight f4 [3, 3]
00000000: 6c52 5d3f 89a1 3f3e 8f64 ec3e 6c54 92bc
00000010: e980 9dbe 3495 713e 7dc4 463f ae69 483f
00000020: f001 c83e
0.8645389 0.18713965 0.4617047 -0.017862521 -0.30762413 0.23592073 0.7764357 0.78286254
0.39063978

fc12.bias f4 [3]
00000000: bc04 f03e 44e8 36bf 3f82 96be
0.46878612 -0.7144816 -0.29396245

fc12.weight f4 [3, 3]
00000000: 726a 903f 3abe eabe 979e 953f be07 aabe
00000010: 7172 bd3e 3031 e03d 079f 333f 5d32 e8bf
00000020: 3563 123f
1.1282485 -0.45848256 1.1689023 -0.33209032 0.37001374 0.10946882 0.7016453 -1.814037
0.5718263

fc13.bias f4 [3]
00000000: 416e 013e 5264 21bb 44e0 03bf
0.12639715 -0.0024626446 -0.5151408

fc13.weight f4 [3, 3]
00000000: f3ee a23f 7b8f debf 51d1 a93f dcae 22bd
00000010: 6cce c9bd 84c8 debe c278 833d 200c 013f
00000020: 0a81 3ebe
1.2729172 -1.7387537 1.3267003 -0.03971754 -0.09853825 -0.43512356 0.06419517 0.50409126
-0.18603912

fc14.bias f4 [3]
00000000: c44e 0abe b6e7 d23e 84c6 f43e
-0.13506609 0.41192406 0.47807705

fc14.weight f4 [3, 3]
00000000: 56d6 5cbe 7619 0d3f 1610 ca3e bf8f d4bc
00000010: d356 a33e 66e1 fa3e a453 723f da2a 183f
00000020: 40ee 3cbe
-0.21566138 0.55116975 0.39465398 -0.02594745 0.3190218 0.4900009 0.94658875 0.59440386
-0.1845026

fc2.weight f4 [1, 3]
00000000: e41c d33e fe6d a1bf b212 283f
0.4123298 -1.2611692 0.65653527
